
8000 8100 2900
[2023-09-09 17:34:01,213][main.py][line:165][INFO] total params:3.3590M
[2023-09-09 17:34:01,213][main.py][line:168][INFO] Training Mode
[2023-09-09 17:34:01,214][main.py][line:78][INFO] Model:XModel(
  (self_attention): XEncoder(
    (self_attn): TCA(
      (q): Linear(in_features=1024, out_features=128, bias=True)
      (k): Linear(in_features=1024, out_features=128, bias=True)
      (v): Linear(in_features=1024, out_features=128, bias=True)
      (o): Linear(in_features=128, out_features=1024, bias=True)
      (act): Softmax(dim=-1)
    )
    (linear1): Conv1d(1024, 512, kernel_size=(1,), stride=(1,))
    (linear2): Conv1d(512, 300, kernel_size=(1,), stride=(1,))
    (dropout1): Dropout(p=0.1, inplace=False)
    (dropout2): Dropout(p=0.1, inplace=False)
    (norm): LayerNorm((1024,), eps=1e-05, elementwise_affine=True)
    (loc_adj): DistanceAdj()
    (DR_DMU): WSAD(
      (embedding): Temporal(
        (conv_1): Sequential(
          (0): Conv1d(1024, 512, kernel_size=(3,), stride=(1,), padding=(1,))
          (1): ReLU()
        )
      )
      (triplet): TripletMarginLoss()
      (Amemory): Memory_Unit(
        (sig): Sigmoid()
      )
      (Nmemory): Memory_Unit(
        (sig): Sigmoid()
      )
      (encoder_mu): Sequential(
        (0): Linear(in_features=512, out_features=512, bias=True)
      )
      (encoder_var): Sequential(
        (0): Linear(in_features=512, out_features=512, bias=True)
      )
      (relu): ReLU()
    )
  )
  (classifier): Conv1d(300, 1, kernel_size=(9,), stride=(1,))
  (dropout): Dropout(p=0.1, inplace=False)
)
[2023-09-09 17:34:01,214][main.py][line:79][INFO] Optimizer:Adam (
Parameter Group 0
    amsgrad: False
    betas: (0.9, 0.999)
    capturable: False
    differentiable: False
    eps: 1e-08
    foreach: None
    fused: None
    initial_lr: 0.0001
    lr: 0.0001
    maximize: False
    weight_decay: 5e-05
)
[2023-09-09 17:34:07,130][main.py][line:82][INFO] Random initialize AUCAUC:0.4970 Anomaly AUC:0.48541
…
