…
 9, 'temp': 0.09, 'lamda': 1, 'seed': 9, 'test_bs': 10, 'smooth': 'slide', 'kappa': 7, 'ckpt_path': './ckpt/ucf__8636.pkl', 'feat_dim': 1024, 'head_num': 1, 'hid_dim': 128, 'out_dim': 300, 'lr': 0.0005, 'dropout': 0.1, 'train_bs': 128, 'max_seqlen': 200, 'max_epoch': 50, 'workers': 8, 'save_dir': './ckpt/', 'logs_dir': './log_info.log'}
[2023-06-26 10:22:41,974][main.py][line:113][INFO] total params:1.2091M
[2023-06-26 10:22:41,975][main.py][line:116][INFO] Training Mode
[2023-06-26 10:22:41,976][main.py][line:53][INFO] Model:XModel(
  (self_attention): XEncoder(
    (self_attn): TCA(
      (q): Linear(in_features=1024, out_features=128, bias=True)
      (k): Linear(in_features=1024, out_features=128, bias=True)
      (v): Linear(in_features=1024, out_features=128, bias=True)
      (o): Linear(in_features=128, out_features=1024, bias=True)
      (act): Softmax(dim=-1)
    )
    (linear1): Conv1d(1024, 512, kernel_size=(1,), stride=(1,))
    (linear2): Conv1d(512, 300, kernel_size=(1,), stride=(1,))
    (dropout1): Dropout(p=0.1, inplace=False)
    (dropout2): Dropout(p=0.1, inplace=False)
    (norm): LayerNorm((1024,), eps=1e-05, elementwise_affine=True)
    (loc_adj): DistanceAdj()
  )
  (classifier): Conv1d(300, 1, kernel_size=(9,), stride=(1,))
)

[2023-06-26 10:22:41,976][main.py][line:54][INFO] Optimizer:Adam (
Parameter Group 0
    amsgrad: False
    betas: (0.9, 0.999)
    eps: 1e-08
    initial_lr: 0.0005
    lr: 0.0005
    weight_decay: 0
)

[2023-06-26 10:23:04,467][main.py][line:57][INFO] Random initialize AUC:0.5444 FAR:0.67905
[2023-06-26 10:28:20,970][main.py][line:74][INFO] [Epoch:1/50]: loss1:0.3674 loss2:1.0960 | AUC:0.8476 FAR:0.00341
…
': 3, 'temp': 0.05, 'lamda': 1, 'seed': 4, 'test_bs': 5, 'smooth': 'fixed', 'kappa': 8, 'ckpt_path': './ckpt/xd__8526.pkl', 'feat_dim': 1024, 'head_num': 1, 'hid_dim': 128, 'out_dim': 300, 'lr': 0.0005, 'dropout': 0.1, 'train_bs': 128, 'max_seqlen': 200, 'max_epoch': 50, 'workers': 8, 'save_dir': './ckpt/', 'logs_dir': './log_info.log'}
[2023-06-26 12:59:05,198][main.py][line:113][INFO] total params:1.2073M
[2023-06-26 12:59:05,198][main.py][line:116][INFO] Training Mode
[2023-06-26 12:59:05,199][main.py][line:53][INFO] Model:XModel(
  (self_attention): XEncoder(
    (self_attn): TCA(
      (q): Linear(in_features=1024, out_features=128, bias=True)
      (k): Linear(in_features=1024, out_features=128, bias=True)
      (v): Linear(in_features=1024, out_features=128, bias=True)
      (o): Linear(in_features=128, out_features=1024, bias=True)
      (act): Softmax(dim=-1)
    )
    (linear1): Conv1d(1024, 512, kernel_size=(1,), stride=(1,))
    (linear2): Conv1d(512, 300, kernel_size=(1,), stride=(1,))
    (dropout1): Dropout(p=0.1, inplace=False)
    (dropout2): Dropout(p=0.1, inplace=False)
    (norm): LayerNorm((1024,), eps=1e-05, elementwise_affine=True)
    (loc_adj): DistanceAdj()
  )
  (classifier): Conv1d(300, 1, kernel_size=(3,), stride=(1,))
)

[2023-06-26 12:59:05,200][main.py][line:54][INFO] Optimizer:Adam (
Parameter Group 0
    amsgrad: False
    betas: (0.9, 0.999)
    eps: 1e-08
    initial_lr: 0.0005
    lr: 0.0005
    weight_decay: 0
)

[2023-06-26 12:59:18,902][main.py][line:57][INFO] Random initialize AP:0.2742 FAR:0.44700
[2023-06-26 13:01:57,379][main.py][line:74][INFO] [Epoch:1/50]: loss1:0.3384 loss2:0.5558 | AUC:0.7968 FAR:0.00456
…
9, 'temp': 0.09, 'lamda': 1, 'seed': 9, 'test_bs': 10, 'smooth': 'slide', 'kappa': 7, 'ckpt_path': './ckpt/ucf__8548.pkl', 'feat_dim': 1024, 'head_num': 1, 'hid_dim': 128, 'out_dim': 300, 'lr': 0.0005, 'dropout': 0.1, 'train_bs': 128, 'max_seqlen': 200, 'max_epoch': 50, 'workers': 8, 'save_dir': './ckpt/', 'logs_dir': './log_info.log'}
[2023-07-19 14:58:30,788][main.py][line:108][INFO] total params:27.0270M
[2023-07-19 14:58:30,788][main.py][line:111][INFO] Training Mode
[2023-07-19 14:58:30,789][main.py][line:48][INFO] Model:XModel(
  (self_attention): XEncoder(
    (self_attn): TCA(
      (q): Linear(in_features=1024, out_features=128, bias=True)
      (k): Linear(in_features=1024, out_features=128, bias=True)
      (v): Linear(in_features=1024, out_features=128, bias=True)
      (o): Linear(in_features=128, out_features=1024, bias=True)
      (act): Softmax(dim=-1)
    )
    (linear1): Conv1d(1024, 512, kernel_size=(1,), stride=(1,))
    (linear2): Conv1d(512, 300, kernel_size=(1,), stride=(1,))
    (dropout1): Dropout(p=0.1, inplace=False)
    (dropout2): Dropout(p=0.1, inplace=False)
    (norm): LayerNorm((1024,), eps=1e-05, elementwise_affine=True)
    (loc_adj): DistanceAdj()
  )
  (classifier): Conv1d(300, 1, kernel_size=(9,), stride=(1,))
  (bert): BERT5(
    (embedding): BERTEmbedding2(
      (learnedPosition): LearnedPositionalEmbedding2()
      (dropout): Dropout(p=0.1, inplace=False)
    )
    (transformer_blocks): ModuleList(
      (0-1): 2 x TransformerBlock(
        (attention): MultiHeadedAttention(
          (linear_layers): ModuleList(
            (0-2): 3 x Linear(in_features=1024, out_features=1024, bias=True)
          )
          (output_linear): Linear(in_features=1024, out_features=1024, bias=True)
          (attention): Attention()
          (dropout): Dropout(p=0.1, inplace=False)
        )
        (feed_forward): PositionwiseFeedForward(
          (w_1): Linear(in_features=1024, out_features=4096, bias=True)
          (w_2): Linear(in_features=4096, out_features=1024, bias=True)
          (dropout): Dropout(p=0.1, inplace=False)
          (activation): GELU()
        )
        (input_sublayer): SublayerConnection(
          (norm): LayerNorm()
          (dropout): Dropout(p=0.1, inplace=False)
        )
        (output_sublayer): SublayerConnection(
          (norm): LayerNorm()
          (dropout): Dropout(p=0.1, inplace=False)
        )
        (dropout): Dropout(p=0.1, inplace=False)
      )
    )
  )
  (fc1_2): Linear(in_features=1024, out_features=512, bias=True)
  (fc2_2): Linear(in_features=512, out_features=128, bias=True)
  (fc3_2): Linear(in_features=128, out_features=1, bias=True)
)

[2023-07-19 14:58:30,789][main.py][line:49][INFO] Optimizer:Adam (
Parameter Group 0
    amsgrad: False
    betas: (0.9, 0.999)
    capturable: False
    differentiable: False
    eps: 1e-08
    foreach: None
    fused: None
    initial_lr: 0.0005
    lr: 0.0005
    maximize: False
    weight_decay: 0
)

[2023-07-19 15:08:44,535][main.py][line:82][INF
…
[2023-07-21 11:22:58,243][main_bert_v2.py][line:27][INFO] loading pretrained checkpoint from ./ckpt/ucf__8636.pkl.
[2023-07-21 11:22:58,255][main_bert_v2.py][line:56][INFO] Model:BertModel(
  (bert): BERT5(
    (embedding): BERTEmbedding2(
      (learnedPosition): LearnedPositionalEmbedding2()
      (dropout): Dropout(p=0.1, inplace=False)
    )
    (transformer_blocks): ModuleList(
      (0-3): 4 x TransformerBlock(
        (attention): MultiHeadedAttention(
          (linear_layers): ModuleList(
            (0-2): 3 x Linear(in_features=1024, out_features=1024, bias=True)
          )
          (output_linear): Linear(in_features=1024, out_features=1024, bias=True)
          (attention): Attention()
          (dropout): Dropout(p=0.1, inplace=False)
        )
        (feed_forward): PositionwiseFeedForward(
          (w_1): Linear(in_features=1024, out_features=4096, bias=True)
          (w_2): Linear(in_features=4096, out_features=1024, bias=True)
          (dropout): Dropout(p=0.1, inplace=False)
          (activation): GELU()
        )
        (input_sublayer): SublayerConnection(
          (norm): LayerNorm()
          (dropout): Dropout(p=0.1, inplace=False)
        )
        (output_sublayer): SublayerConnection(
          (norm): LayerNorm()
          (dropout): Dropout(p=0.1, inplace=False)
        )
        (dropout): Dropout(p=0.1, inplace=False)
      )
    )
  )
  (fc1_2): Linear(in_features=1024, out_features=512, bias=True)
  (fc2_2): Linear(in_features=512, out_features=128, bias=True)
  (fc3_2): Linear(in_features=128, out_features=1, bias=True)
  (drop_out): Dropout(p=0.1, inplace=False)
  (relu): ReLU()
  (sigmoid): Sigmoid()
)

[2023-07-21 11:22:58,255][main_bert_v2.py][line:57][INFO] Optimizer:Adagrad (
Parameter Group 0
    differentiable: False
    eps: 1e-10
    foreach: None
    initial_accumulator_value: 0
    initial_lr: 0.0001
    lr: 0.0001
    lr_decay: 0
    maximize: False
    weight_decay: 0.0010000000474974513
…
', 'kappa': 7, 'ckpt_path': './ckpt/ucf__8636.pkl', 'ckpt_bert_path': './ckpt/bert_current.pkl', 'bert': True, 'beta': 0.5, 'feat_dim': 1024, 'head_num': 1, 'hid_dim': 32, 'out_dim': 300, 'lr': 0.0005, 'dropout': 0.1, 'train_bs': 128, 'max_seqlen': 200, 'max_epoch': 100, 'workers': 8, 'save_dir': './ckpt/', 'logs_dir': './log_info.log'}
[2023-08-21 20:49:21,330][main.py][line:126][INFO] total params:0.8156M
[2023-08-21 20:49:21,330][main.py][line:129][INFO] Training Mode
[2023-08-21 20:49:21,330][main.py][line:54][INFO] Model:XModel(
  (self_attention): XEncoder(
    (self_attn): TCA(
      (q): Linear(in_features=1024, out_features=32, bias=True)
      (k): Linear(in_features=1024, out_features=32, bias=True)
      (v): Linear(in_features=1024, out_features=32, bias=True)
      (o): Linear(in_features=32, out_features=1024, bias=True)
      (act): Softmax(dim=-1)
    )
    (linear1): Conv1d(1024, 512, kernel_size=(1,), stride=(1,))
    (linear2): Conv1d(512, 300, kernel_size=(1,), stride=(1,))
    (dropout1): Dropout(p=0.1, inplace=False)
    (dropout2): Dropout(p=0.1, inplace=False)
    (norm): LayerNorm((1024,), eps=1e-05, elementwise_affine=True)
    (loc_adj): DistanceAdj()
  )
  (classifier): Conv1d(300, 1, kernel_size=(9,), stride=(1,))
)

[2023-08-21 20:49:21,330][main.py][line:55][INFO] Optimizer:Adam (
Parameter Group 0
    amsgrad: False
    betas: (0.9, 0.999)
    capturable: False
    differentiable: False
    eps: 1e-08
    foreach: None
    fused: None
    initial_lr: 0.0005
    lr: 0.0005
    maximize: False
    weight_decay: 0
)

[2023-08-21 20:55:09,587][main.py][line:94][INFO] Co
…
