…
 9, 'temp': 0.09, 'lamda': 1, 'seed': 9, 'test_bs': 10, 'smooth': 'slide', 'kappa': 7, 'ckpt_path': './ckpt/ucf__8636.pkl', 'feat_dim': 1024, 'head_num': 1, 'hid_dim': 128, 'out_dim': 300, 'lr': 0.0005, 'dropout': 0.1, 'train_bs': 128, 'max_seqlen': 200, 'max_epoch': 50, 'workers': 8, 'save_dir': './ckpt/', 'logs_dir': './log_info.log'}
[2023-06-26 10:22:41,974][main.py][line:113][INFO] total params:1.2091M
[2023-06-26 10:22:41,975][main.py][line:116][INFO] Training Mode
[2023-06-26 10:22:41,976][main.py][line:53][INFO] Model:XModel(
  (self_attention): XEncoder(
    (self_attn): TCA(
      (q): Linear(in_features=1024, out_features=128, bias=True)
      (k): Linear(in_features=1024, out_features=128, bias=True)
      (v): Linear(in_features=1024, out_features=128, bias=True)
      (o): Linear(in_features=128, out_features=1024, bias=True)
      (act): Softmax(dim=-1)
    )
    (linear1): Conv1d(1024, 512, kernel_size=(1,), stride=(1,))
    (linear2): Conv1d(512, 300, kernel_size=(1,), stride=(1,))
    (dropout1): Dropout(p=0.1, inplace=False)
    (dropout2): Dropout(p=0.1, inplace=False)
    (norm): LayerNorm((1024,), eps=1e-05, elementwise_affine=True)
    (loc_adj): DistanceAdj()
  )
  (classifier): Conv1d(300, 1, kernel_size=(9,), stride=(1,))
)

[2023-06-26 10:22:41,976][main.py][line:54][INFO] Optimizer:Adam (
Parameter Group 0
    amsgrad: False
    betas: (0.9, 0.999)
    eps: 1e-08
    initial_lr: 0.0005
    lr: 0.0005
    weight_decay: 0
)

[2023-06-26 10:23:04,467][main.py][line:57][INFO] Random initialize AUC:0.5444 FAR:0.67905
[2023-06-26 10:28:20,970][main.py][line:74][INFO] [Epoch:1/50]: loss1:0.3674 loss2:1.0960 | AUC:0.8476 FAR:0.00341
…
': 3, 'temp': 0.05, 'lamda': 1, 'seed': 4, 'test_bs': 5, 'smooth': 'fixed', 'kappa': 8, 'ckpt_path': './ckpt/xd__8526.pkl', 'feat_dim': 1024, 'head_num': 1, 'hid_dim': 128, 'out_dim': 300, 'lr': 0.0005, 'dropout': 0.1, 'train_bs': 128, 'max_seqlen': 200, 'max_epoch': 50, 'workers': 8, 'save_dir': './ckpt/', 'logs_dir': './log_info.log'}
[2023-06-26 12:59:05,198][main.py][line:113][INFO] total params:1.2073M
[2023-06-26 12:59:05,198][main.py][line:116][INFO] Training Mode
[2023-06-26 12:59:05,199][main.py][line:53][INFO] Model:XModel(
  (self_attention): XEncoder(
    (self_attn): TCA(
      (q): Linear(in_features=1024, out_features=128, bias=True)
      (k): Linear(in_features=1024, out_features=128, bias=True)
      (v): Linear(in_features=1024, out_features=128, bias=True)
      (o): Linear(in_features=128, out_features=1024, bias=True)
      (act): Softmax(dim=-1)
    )
    (linear1): Conv1d(1024, 512, kernel_size=(1,), stride=(1,))
    (linear2): Conv1d(512, 300, kernel_size=(1,), stride=(1,))
    (dropout1): Dropout(p=0.1, inplace=False)
    (dropout2): Dropout(p=0.1, inplace=False)
    (norm): LayerNorm((1024,), eps=1e-05, elementwise_affine=True)
    (loc_adj): DistanceAdj()
  )
  (classifier): Conv1d(300, 1, kernel_size=(3,), stride=(1,))
)

[2023-06-26 12:59:05,200][main.py][line:54][INFO] Optimizer:Adam (
Parameter Group 0
    amsgrad: False
    betas: (0.9, 0.999)
    eps: 1e-08
    initial_lr: 0.0005
    lr: 0.0005
    weight_decay: 0
)

[2023-06-26 12:59:18,902][main.py][line:57][INFO] Random initialize AP:0.2742 FAR:0.44700
[2023-06-26 13:01:57,379][main.py][line:74][INFO] [Epoch:1/50]: loss1:0.3384 loss2:0.5558 | AUC:0.7968 FAR:0.00456
…
9, 'temp': 0.09, 'lamda': 1, 'seed': 9, 'test_bs': 10, 'smooth': 'slide', 'kappa': 7, 'ckpt_path': './ckpt/ucf__8548.pkl', 'feat_dim': 1024, 'head_num': 1, 'hid_dim': 128, 'out_dim': 300, 'lr': 0.0005, 'dropout': 0.1, 'train_bs': 128, 'max_seqlen': 200, 'max_epoch': 50, 'workers': 8, 'save_dir': './ckpt/', 'logs_dir': './log_info.log'}
[2023-07-19 14:58:30,788][main.py][line:108][INFO] total params:27.0270M
[2023-07-19 14:58:30,788][main.py][line:111][INFO] Training Mode
[2023-07-19 14:58:30,789][main.py][line:48][INFO] Model:XModel(
  (self_attention): XEncoder(
    (self_attn): TCA(
      (q): Linear(in_features=1024, out_features=128, bias=True)
      (k): Linear(in_features=1024, out_features=128, bias=True)
      (v): Linear(in_features=1024, out_features=128, bias=True)
      (o): Linear(in_features=128, out_features=1024, bias=True)
      (act): Softmax(dim=-1)
    )
    (linear1): Conv1d(1024, 512, kernel_size=(1,), stride=(1,))
    (linear2): Conv1d(512, 300, kernel_size=(1,), stride=(1,))
    (dropout1): Dropout(p=0.1, inplace=False)
    (dropout2): Dropout(p=0.1, inplace=False)
    (norm): LayerNorm((1024,), eps=1e-05, elementwise_affine=True)
    (loc_adj): DistanceAdj()
  )
  (classifier): Conv1d(300, 1, kernel_size=(9,), stride=(1,))
  (bert): BERT5(
    (embedding): BERTEmbedding2(
      (learnedPosition): LearnedPositionalEmbedding2()
      (dropout): Dropout(p=0.1, inplace=False)
    )
    (transformer_blocks): ModuleList(
      (0-1): 2 x TransformerBlock(
        (attention): MultiHeadedAttention(
          (linear_layers): ModuleList(
            (0-2): 3 x Linear(in_features=1024, out_features=1024, bias=True)
          )
          (output_linear): Linear(in_features=1024, out_features=1024, bias=True)
          (attention): Attention()
          (dropout): Dropout(p=0.1, inplace=False)
        )
        (feed_forward): PositionwiseFeedForward(
          (w_1): Linear(in_features=1024, out_features=4096, bias=True)
          (w_2): Linear(in_features=4096, out_features=1024, bias=True)
          (dropout): Dropout(p=0.1, inplace=False)
          (activation): GELU()
        )
        (input_sublayer): SublayerConnection(
          (norm): LayerNorm()
          (dropout): Dropout(p=0.1, inplace=False)
        )
        (output_sublayer): SublayerConnection(
          (norm): LayerNorm()
          (dropout): Dropout(p=0.1, inplace=False)
        )
        (dropout): Dropout(p=0.1, inplace=False)
      )
    )
  )
  (fc1_2): Linear(in_features=1024, out_features=512, bias=True)
  (fc2_2): Linear(in_features=512, out_features=128, bias=True)
  (fc3_2): Linear(in_features=128, out_features=1, bias=True)
)

[2023-07-19 14:58:30,789][main.py][line:49][INFO] Optimizer:Adam (
Parameter Group 0
    amsgrad: False
    betas: (0.9, 0.999)
    capturable: False
    differentiable: False
    eps: 1e-08
    foreach: None
    fused: None
    initial_lr: 0.0005
    lr: 0.0005
    maximize: False
    weight_decay: 0
)

[2023-07-19 15:08:44,535][main.py][line:82][INF
…
[2023-07-21 11:22:58,243][main_bert_v2.py][line:27][INFO] loading pretrained checkpoint from ./ckpt/ucf__8636.pkl.
[2023-07-21 11:22:58,255][main_bert_v2.py][line:56][INFO] Model:BertModel(
  (bert): BERT5(
    (embedding): BERTEmbedding2(
      (learnedPosition): LearnedPositionalEmbedding2()
      (dropout): Dropout(p=0.1, inplace=False)
    )
    (transformer_blocks): ModuleList(
      (0-3): 4 x TransformerBlock(
        (attention): MultiHeadedAttention(
          (linear_layers): ModuleList(
            (0-2): 3 x Linear(in_features=1024, out_features=1024, bias=True)
          )
          (output_linear): Linear(in_features=1024, out_features=1024, bias=True)
          (attention): Attention()
          (dropout): Dropout(p=0.1, inplace=False)
        )
        (feed_forward): PositionwiseFeedForward(
          (w_1): Linear(in_features=1024, out_features=4096, bias=True)
          (w_2): Linear(in_features=4096, out_features=1024, bias=True)
          (dropout): Dropout(p=0.1, inplace=False)
          (activation): GELU()
        )
        (input_sublayer): SublayerConnection(
          (norm): LayerNorm()
          (dropout): Dropout(p=0.1, inplace=False)
        )
        (output_sublayer): SublayerConnection(
          (norm): LayerNorm()
          (dropout): Dropout(p=0.1, inplace=False)
        )
        (dropout): Dropout(p=0.1, inplace=False)
      )
    )
  )
  (fc1_2): Linear(in_features=1024, out_features=512, bias=True)
  (fc2_2): Linear(in_features=512, out_features=128, bias=True)
  (fc3_2): Linear(in_features=128, out_features=1, bias=True)
  (drop_out): Dropout(p=0.1, inplace=False)
  (relu): ReLU()
  (sigmoid): Sigmoid()
)

[2023-07-21 11:22:58,255][main_bert_v2.py][line:57][INFO] Optimizer:Adagrad (
Parameter Group 0
    differentiable: False
    eps: 1e-10
    foreach: None
    initial_accumulator_value: 0
    initial_lr: 0.0001
    lr: 0.0001
    lr_decay: 0
    maximize: False
    weight_decay: 0.0010000000474974513
…
', 'kappa': 7, 'ckpt_path': './ckpt/ucf__8636.pkl', 'ckpt_bert_path': './ckpt/bert_current.pkl', 'bert': True, 'beta': 0.5, 'feat_dim': 1024, 'head_num': 1, 'hid_dim': 32, 'out_dim': 300, 'lr': 0.0005, 'dropout': 0.1, 'train_bs': 128, 'max_seqlen': 200, 'max_epoch': 100, 'workers': 8, 'save_dir': './ckpt/', 'logs_dir': './log_info.log'}
[2023-08-21 20:49:21,330][main.py][line:126][INFO] total params:0.8156M
[2023-08-21 20:49:21,330][main.py][line:129][INFO] Training Mode
[2023-08-21 20:49:21,330][main.py][line:54][INFO] Model:XModel(
  (self_attention): XEncoder(
    (self_attn): TCA(
      (q): Linear(in_features=1024, out_features=32, bias=True)
      (k): Linear(in_features=1024, out_features=32, bias=True)
      (v): Linear(in_features=1024, out_features=32, bias=True)
      (o): Linear(in_features=32, out_features=1024, bias=True)
      (act): Softmax(dim=-1)
    )
    (linear1): Conv1d(1024, 512, kernel_size=(1,), stride=(1,))
    (linear2): Conv1d(512, 300, kernel_size=(1,), stride=(1,))
    (dropout1): Dropout(p=0.1, inplace=False)
    (dropout2): Dropout(p=0.1, inplace=False)
    (norm): LayerNorm((1024,), eps=1e-05, elementwise_affine=True)
    (loc_adj): DistanceAdj()
  )
  (classifier): Conv1d(300, 1, kernel_size=(9,), stride=(1,))
)

[2023-08-21 20:49:21,330][main.py][line:55][INFO] Optimizer:Adam (
Parameter Group 0
    amsgrad: False
    betas: (0.9, 0.999)
    capturable: False
    differentiable: False
    eps: 1e-08
    foreach: None
    fused: None
    initial_lr: 0.0005
    lr: 0.0005
    maximize: False
    weight_decay: 0
)

[2023-08-21 20:55:09,587][main.py][line:94][INFO] Co
…
', 'kappa': 7, 'ckpt_path': './ckpt/ucf__8636.pkl', 'ckpt_bert_path': './ckpt/bert_current.pkl', 'bert': True, 'beta': 0.5, 'feat_dim': 1024, 'head_num': 1, 'hid_dim': 128, 'out_dim': 300, 'lr': 0.0005, 'dropout': 0.1, 'train_bs': 32, 'max_seqlen': 200, 'max_epoch': 50, 'workers': 8, 'save_dir': './ckpt/', 'logs_dir': './log_info.log'}
[2023-08-22 15:31:03,402][main.py][line:126][INFO] total params:29.6643M
[2023-08-22 15:31:03,402][main.py][line:129][INFO] Training Mode
[2023-08-22 15:31:03,403][main.py][line:54][INFO] Model:XModel(
  (self_attention): XEncoder(
    (self_attn): TCA(
      (q): Linear(in_features=1024, out_features=128, bias=True)
      (k): Linear(in_features=1024, out_features=128, bias=True)
      (v): Linear(in_features=1024, out_features=128, bias=True)
      (o): Linear(in_features=128, out_features=1024, bias=True)
      (act): Softmax(dim=-1)
    )
    (linear1): Conv1d(1024, 512, kernel_size=(1,), stride=(1,))
    (linear2): Conv1d(512, 300, kernel_size=(1,), stride=(1,))
    (dropout1): Dropout(p=0.1, inplace=False)
    (dropout2): Dropout(p=0.1, inplace=False)
    (norm): LayerNorm((1024,), eps=1e-05, elementwise_affine=True)
    (loc_adj): DistanceAdj()
    (mgfn): mgfn(
      (to_tokens): Conv1d(1024, 64, kernel_size=(3,), stride=(1,), padding=(1,))
      (stages): ModuleList(
        (0): ModuleList(
          (0): Backbone(
            (layers): ModuleList(
              (0-2): 3 x ModuleList(
                (0): Conv1d(64, 64, kernel_size=(3,), stride=(1,), padding=(1,))
                (1): GLANCE(
                  (norm): LayerNorm()
                  (to_qkv): Conv1d(64, 192, kernel_size=(1,), stride=(1,), bias=False)
                  (to_out): Conv1d(64, 64, kernel_size=(1,), stride=(1,))
                )
                (2): Sequential(
                  (0): LayerNorm()
                  (1): Conv1d(64, 256, kernel_size=(1,), stride=(1,))
                  (2): GELU(approximate='none')
                  (3): Dropout(p=0.1, inplace=False)
                  (4): Conv1d(256, 64, kernel_size=(1,), stride=(1,))
                )
              )
            )
          )
          (1): Sequential(
            (0): LayerNorm()
            (1): Conv1d(64, 128, kernel_size=(1,), stride=(1,))
          )
        )
        (1): ModuleList(
          (0): Backbone(
            (layers): ModuleList(
              (0-2): 3 x ModuleList(
                (0): Conv1d(128, 128, kernel_size=(3,), stride=(1,), padding=(1,))
                (1): FOCUS(
                  (norm): BatchNorm1d(128, eps=1e-05, momentum=0.1, affine=True, track_running_stats=True)
                  (to_v): Conv1d(128, 128, kernel_size=(1,), stride=(1,), bias=False)
                  (rel_pos): Conv1d(2, 2, kernel_size=(5,), stride=(1,), padding=(2,), groups=2)
                  (to_out): Conv1d(128, 128, kernel_size=(1,), stride=(1,))
                )
                (2): Sequential(
                  (0): LayerNorm()
                  (1): Conv1d(128, 512, kernel_size=(1,), stride=(1,))
                  (2): GELU(approximate='none')
                  (3): Dropout(p=0.1, inplace=False)
                  (4): Conv1d(512, 128, kernel_size=(1,), stride=(1,))
                )
              )
            )
          )
          (1): Sequential(
            (0): LayerNorm()
            (1): Conv1d(128, 1024, kernel_size=(1,), stride=(1,))
          )
        )
        (2): ModuleList(
          (0): Backbone(
            (layers): ModuleList(
              (0-1): 2 x ModuleList(
                (0): Conv1d(1024, 1024, kernel_size=(3,), stride=(1,), padding=(1,))
                (1): FOCUS(
                  (norm): BatchNorm1d(1024, eps=1e-05, momentum=0.1, affine=True, track_running_stats=True)
                  (to_v): Conv1d(1024, 1024, kernel_size=(1,), stride=(1,), bias=False)
                  (rel_pos): Conv1d(16, 16, kernel_size=(5,), stride=(1,), padding=(2,), groups=16)
                  (to_out): Conv1d(1024, 1024, kernel_size=(1,), stride=(1,))
                )
                (2): Sequential(
                  (0): LayerNorm()
                  (1): Conv1d(1024, 4096, kernel_size=(1,), stride=(1,))
                  (2): GELU(approximate='none')
                  (3): Dropout(p=0.1, inplace=False)
                  (4): Conv1d(4096, 1024, kernel_size=(1,), stride=(1,))
                )
              )
            )
          )
          (1): None
        )
      )
      (to_logits): Sequential(
        (0): LayerNorm((1024,), eps=1e-05, elementwise_affine=True)
      )
      (to_mag): Conv1d(1, 64, kernel_size=(3,), stride=(1,), padding=(1,))
    )
  )
  (classifier): Conv1d(300, 1, kernel_size=(9,), stride=(1,))
)

[2023-08-22 15:31:03,403][main.py][line:55][INFO] Optimizer:Adam (
Parameter Group 0
    amsgrad: False
    betas: (0.9, 0.999)
    capturable: False
    differentiable: False
    eps: 1e-08
    foreach: None
    fused: None
    initial_lr: 0.0005
    lr: 0.0005
    maximize: False
    weight_decay: 0
)

[2023-08-22 15:31:25,132][main.py][line:94][INFO] Co
…
e', 'kappa': 7, 'ckpt_path': './ckpt/ucf__8636.pkl', 'ckpt_bert_path': './ckpt/bert_current.pkl', 'bert': True, 'beta': 0.5, 'feat_dim': 1024, 'head_num': 1, 'hid_dim': 128, 'out_dim': 300, 'lr': 0.001, 'dropout': 0.1, 'train_bs': 32, 'max_seqlen': 200, 'max_epoch': 50, 'workers': 8, 'save_dir': './ckpt/', 'logs_dir': './log_info.log'}
[2023-08-22 21:28:01,658][main.py][line:126][INFO] total params:31.7625M
[2023-08-22 21:28:01,658][main.py][line:129][INFO] Training Mode
[2023-08-22 21:28:01,659][main.py][line:54][INFO] Model:XModel(
  (self_attention): XEncoder(
    (self_attn): TCA(
      (q): Linear(in_features=1024, out_features=128, bias=True)
      (k): Linear(in_features=1024, out_features=128, bias=True)
      (v): Linear(in_features=1024, out_features=128, bias=True)
      (o): Linear(in_features=128, out_features=1024, bias=True)
      (act): Softmax(dim=-1)
    )
    (linear1): Conv1d(1024, 512, kernel_size=(1,), stride=(1,))
    (linear2): Conv1d(512, 300, kernel_size=(1,), stride=(1,))
    (dropout1): Dropout(p=0.1, inplace=False)
    (dropout2): Dropout(p=0.1, inplace=False)
    (norm): LayerNorm((1024,), eps=1e-05, elementwise_affine=True)
    (loc_adj): DistanceAdj()
    (mgfn): mgfn(
      (to_tokens): Conv1d(1024, 64, kernel_size=(3,), stride=(1,), padding=(1,))
      (stages): ModuleList(
        (0): ModuleList(
          (0): Backbone(
            (layers): ModuleList(
              (0-2): 3 x ModuleList(
                (0): Conv1d(64, 64, kernel_size=(3,), stride=(1,), padding=(1,))
                (1): GLANCE(
                  (norm): LayerNorm()
                  (to_qkv): Conv1d(64, 192, kernel_size=(1,), stride=(1,), bias=False)
                  (to_out): Conv1d(64, 64, kernel_size=(1,), stride=(1,))
                )
                (2): Sequential(
                  (0): LayerNorm()
                  (1): Conv1d(64, 256, kernel_size=(1,), stride=(1,))
                  (2): GELU(approximate='none')
                  (3): Dropout(p=0.1, inplace=False)
                  (4): Conv1d(256, 64, kernel_size=(1,), stride=(1,))
                )
              )
            )
          )
          (1): Sequential(
            (0): LayerNorm()
            (1): Conv1d(64, 128, kernel_size=(1,), stride=(1,))
          )
        )
        (1): ModuleList(
          (0): Backbone(
            (layers): ModuleList(
              (0-2): 3 x ModuleList(
                (0): Conv1d(128, 128, kernel_size=(3,), stride=(1,), padding=(1,))
                (1): FOCUS(
                  (norm): BatchNorm1d(128, eps=1e-05, momentum=0.1, affine=True, track_running_stats=True)
                  (to_v): Conv1d(128, 128, kernel_size=(1,), stride=(1,), bias=False)
                  (rel_pos): Conv1d(2, 2, kernel_size=(5,), stride=(1,), padding=(2,), groups=2)
                  (to_out): Conv1d(128, 128, kernel_size=(1,), stride=(1,))
                )
                (2): Sequential(
                  (0): LayerNorm()
                  (1): Conv1d(128, 512, kernel_size=(1,), stride=(1,))
                  (2): GELU(approximate='none')
                  (3): Dropout(p=0.1, inplace=False)
                  (4): Conv1d(512, 128, kernel_size=(1,), stride=(1,))
                )
              )
            )
          )
          (1): Sequential(
            (0): LayerNorm()
            (1): Conv1d(128, 1024, kernel_size=(1,), stride=(1,))
          )
        )
        (2): ModuleList(
          (0): Backbone(
            (layers): ModuleList(
              (0-1): 2 x ModuleList(
                (0): Conv1d(1024, 1024, kernel_size=(3,), stride=(1,), padding=(1,))
                (1): FOCUS(
                  (norm): BatchNorm1d(1024, eps=1e-05, momentum=0.1, affine=True, track_running_stats=True)
                  (to_v): Conv1d(1024, 1024, kernel_size=(1,), stride=(1,), bias=False)
                  (rel_pos): Conv1d(16, 16, kernel_size=(5,), stride=(1,), padding=(2,), groups=16)
                  (to_out): Conv1d(1024, 1024, kernel_size=(1,), stride=(1,))
                )
                (2): Sequential(
                  (0): LayerNorm()
                  (1): Conv1d(1024, 4096, kernel_size=(1,), stride=(1,))
                  (2): GELU(approximate='none')
                  (3): Dropout(p=0.1, inplace=False)
                  (4): Conv1d(4096, 1024, kernel_size=(1,), stride=(1,))
                )
              )
            )
          )
          (1): None
        )
      )
      (to_logits): Sequential(
        (0): LayerNorm((1024,), eps=1e-05, elementwise_affine=True)
      )
      (to_mag): Conv1d(1, 64, kernel_size=(3,), stride=(1,), padding=(1,))
    )
    (concat): Linear(in_features=2048, out_features=1024, bias=True)
  )
  (classifier): Conv1d(300, 1, kernel_size=(9,), stride=(1,))
)

[2023-08-22 21:28:01,659][main.py][line:55][INFO] Optimizer:Adam (
Parameter Group 0
    amsgrad: False
    betas: (0.9, 0.999)
    capturable: False
    differentiable: False
    eps: 1e-08
    foreach: None
    fused: None
    lr: 0.001
    maximize: False
    weight_decay: 0
)

[2023-08-22 22:21:10,443][main.py][line:94][INFO] Config:{'dataset': 'ucf-cr
…
e', 'kappa': 7, 'ckpt_path': './ckpt/ucf__8636.pkl', 'ckpt_bert_path': './ckpt/bert_current.pkl', 'bert': True, 'beta': 0.5, 'feat_dim': 1024, 'head_num': 1, 'hid_dim': 128, 'out_dim': 300, 'lr': 0.001, 'dropout': 0.1, 'train_bs': 32, 'max_seqlen': 200, 'max_epoch': 50, 'workers': 8, 'save_dir': './ckpt/', 'logs_dir': './log_info.log'}
[2023-08-22 23:31:58,617][main.py][line:132][INFO] total params:31.8628M
[2023-08-22 23:31:58,617][main.py][line:135][INFO] Training Mode
[2023-08-22 23:31:58,618][main.py][line:60][INFO] Model:XModel(
  (self_attention): XEncoder(
    (self_attn): TCA(
      (q): Linear(in_features=1024, out_features=128, bias=True)
      (k): Linear(in_features=1024, out_features=128, bias=True)
      (v): Linear(in_features=1024, out_features=128, bias=True)
      (o): Linear(in_features=128, out_features=1024, bias=True)
      (act): Softmax(dim=-1)
    )
    (linear1): Conv1d(1024, 512, kernel_size=(1,), stride=(1,))
    (linear2): Conv1d(512, 300, kernel_size=(1,), stride=(1,))
    (dropout1): Dropout(p=0.1, inplace=False)
    (dropout2): Dropout(p=0.1, inplace=False)
    (norm): LayerNorm((1024,), eps=1e-05, elementwise_affine=True)
    (loc_adj): DistanceAdj()
    (mgfn): mgfn(
      (to_tokens): Conv1d(1024, 128, kernel_size=(3,), stride=(1,), padding=(1,))
      (stages): ModuleList(
        (0): ModuleList(
          (0): Backbone(
            (layers): ModuleList(
              (0-2): 3 x ModuleList(
                (0): Conv1d(128, 128, kernel_size=(3,), stride=(1,), padding=(1,))
                (1): GLANCE(
                  (norm): LayerNorm()
                  (to_qkv): Conv1d(128, 384, kernel_size=(1,), stride=(1,), bias=False)
                  (to_out): Conv1d(128, 128, kernel_size=(1,), stride=(1,))
                )
                (2): Sequential(
                  (0): LayerNorm()
                  (1): Conv1d(128, 512, kernel_size=(1,), stride=(1,))
                  (2): GELU(approximate='none')
                  (3): Dropout(p=0.1, inplace=False)
                  (4): Conv1d(512, 128, kernel_size=(1,), stride=(1,))
                )
              )
            )
          )
          (1): Sequential(
            (0): LayerNorm()
            (1): Conv1d(128, 1024, kernel_size=(1,), stride=(1,))
          )
        )
        (1): ModuleList(
          (0): Backbone(
            (layers): ModuleList(
              (0-1): 2 x ModuleList(
                (0): Conv1d(1024, 1024, kernel_size=(3,), stride=(1,), padding=(1,))
                (1): FOCUS(
                  (norm): BatchNorm1d(1024, eps=1e-05, momentum=0.1, affine=True, track_running_stats=True)
                  (to_v): Conv1d(1024, 1024, kernel_size=(1,), stride=(1,), bias=False)
                  (rel_pos): Conv1d(16, 16, kernel_size=(5,), stride=(1,), padding=(2,), groups=16)
                  (to_out): Conv1d(1024, 1024, kernel_size=(1,), stride=(1,))
                )
                (2): Sequential(
                  (0): LayerNorm()
                  (1): Conv1d(1024, 4096, kernel_size=(1,), stride=(1,))
                  (2): GELU(approximate='none')
                  (3): Dropout(p=0.1, inplace=False)
                  (4): Conv1d(4096, 1024, kernel_size=(1,), stride=(1,))
                )
              )
            )
          )
          (1): None
        )
      )
      (to_logits): Sequential(
        (0): LayerNorm((1024,), eps=1e-05, elementwise_affine=True)
      )
      (to_mag): Conv1d(1, 128, kernel_size=(3,), stride=(1,), padding=(1,))
    )
    (concat): Linear(in_features=2048, out_features=1024, bias=True)
  )
  (classifier): Conv1d(300, 1, kernel_size=(9,), stride=(1,))
)

[2023-08-22 23:31:58,618][main.py][line:61][INFO] Optimizer:Adam (
Parameter Group 0
    amsgrad: False
    betas: (0.9, 0.999)
    capturable: False
    differentiable: False
    eps: 1e-08
    foreach: None
    fused: None
    lr: 0.0005
    maximize: False
    weight_decay: 0

Parameter Group 1
    amsgrad: False
    betas: (0.9, 0.999)
    capturable: False
…
.0, 'seed': 9, 'test_bs': 10, 'smooth': 'slide', 'kappa': 7, 'ckpt_path': './ckpt/ucf__8512.pkl', 'bert': True, 'beta': 0.5, 'feat_dim': 1024, 'head_num': 1, 'hid_dim': 128, 'out_dim': 300, 'lr': 0.001, 'dropout': 0.1, 'train_bs': 32, 'max_seqlen': 200, 'max_epoch': 50, 'workers': 8, 'save_dir': './ckpt/', 'logs_dir': './log_info.log'}
[2023-08-23 23:54:20,917][main.py][line:132][INFO] total params:33.1046M
[2023-08-23 23:54:20,917][main.py][line:135][INFO] Training Mode
[2023-08-23 23:54:20,918][main.py][line:60][INFO] Model:XModel(
  (self_attention): XEncoder(
    (self_attn): TCA(
      (q): Linear(in_features=1024, out_features=128, bias=True)
      (k): Linear(in_features=1024, out_features=128, bias=True)
      (v): Linear(in_features=1024, out_features=128, bias=True)
      (o): Linear(in_features=128, out_features=1024, bias=True)
      (act): Softmax(dim=-1)
    )
    (linear1): Conv1d(1024, 512, kernel_size=(1,), stride=(1,))
    (linear2): Conv1d(512, 300, kernel_size=(1,), stride=(1,))
    (dropout1): Dropout(p=0.1, inplace=False)
    (dropout2): Dropout(p=0.1, inplace=False)
    (norm): LayerNorm((1024,), eps=1e-05, elementwise_affine=True)
    (loc_adj): DistanceAdj()
    (mgfn): mgfn(
      (to_tokens): Conv1d(1024, 32, kernel_size=(3,), stride=(1,), padding=(1,))
      (stages): ModuleList(
        (0): ModuleList(
          (0): Backbone(
            (layers): ModuleList(
              (0-2): 3 x ModuleList(
                (0): Conv1d(32, 32, kernel_size=(3,), stride=(1,), padding=(1,))
                (1): GLANCE(
                  (norm): LayerNorm()
                  (to_qkv): Conv1d(32, 192, kernel_size=(1,), stride=(1,), bias=False)
                  (to_out): Conv1d(64, 32, kernel_size=(1,), stride=(1,))
                )
                (2): Sequential(
                  (0): LayerNorm()
                  (1): Conv1d(32, 128, kernel_size=(1,), stride=(1,))
                  (2): GELU(approximate='none')
                  (3): Dropout(p=0.1, inplace=False)
                  (4): Conv1d(128, 32, kernel_size=(1,), stride=(1,))
                )
              )
            )
          )
          (1): Sequential(
            (0): LayerNorm()
            (1): Conv1d(32, 64, kernel_size=(1,), stride=(1,))
          )
        )
        (1): ModuleList(
          (0): Backbone(
            (layers): ModuleList(
              (0-2): 3 x ModuleList(
                (0): Conv1d(64, 64, kernel_size=(3,), stride=(1,), padding=(1,))
                (1): FOCUS(
                  (norm): BatchNorm1d(64, eps=1e-05, momentum=0.1, affine=True, track_running_stats=True)
                  (to_v): Conv1d(64, 128, kernel_size=(1,), stride=(1,), bias=False)
                  (rel_pos): Conv1d(2, 2, kernel_size=(5,), stride=(1,), padding=(2,), groups=2)
                  (to_out): Conv1d(128, 64, kernel_size=(1,), stride=(1,))
                )
                (2): Sequential(
                  (0): LayerNorm()
                  (1): Conv1d(64, 256, kernel_size=(1,), stride=(1,))
                  (2): GELU(approximate='none')
                  (3): Dropout(p=0.1, inplace=False)
                  (4): Conv1d(256, 64, kernel_size=(1,), stride=(1,))
                )
              )
            )
          )
          (1): Sequential(
            (0): LayerNorm()
            (1): Conv1d(64, 1024, kernel_size=(1,), stride=(1,))
          )
        )
        (2): ModuleList(
          (0): Backbone(
            (layers): ModuleList(
              (0-1): 2 x ModuleList(
                (0): Conv1d(1024, 1024, kernel_size=(3,), stride=(1,), padding=(1,))
                (1): FOCUS(
                  (norm): BatchNorm1d(1024, eps=1e-05, momentum=0.1, affine=True, track_running_stats=True)
                  (to_v): Conv1d(1024, 2048, kernel_size=(1,), stride=(1,), bias=False)
                  (rel_pos): Conv1d(32, 32, kernel_size=(5,), stride=(1,), padding=(2,), groups=32)
                  (to_out): Conv1d(2048, 1024, kernel_size=(1,), stride=(1,))
                )
                (2): Sequential(
                  (0): LayerNorm()
                  (1): Conv1d(1024, 4096, kernel_size=(1,), stride=(1,))
                  (2): GELU(approximate='none')
                  (3): Dropout(p=0.1, inplace=False)
                  (4): Conv1d(4096, 1024, kernel_size=(1,), stride=(1,))
                )
              )
            )
          )
          (1): None
        )
      )
      (to_logits): Sequential(
        (0): LayerNorm((1024,), eps=1e-05, elementwise_affine=True)
      )
      (to_mag): Conv1d(1, 32, kernel_size=(3,), stride=(1,), padding=(1,))
    )
  )
  (classifier): Conv1d(300, 1, kernel_size=(9,), stride=(1,))
  (dropout): Dropout(p=0.7, inplace=False)
)

[2023-08-23 23:54:20,918][main.py][line:61][INFO] Optimizer:Adam (
Parameter Group 0
    amsgrad: False
    betas: (0.9, 0.999)
    capturable: False
    differentiable: False
    eps: 1e-08
    foreach: None
    fused: None
    initial_lr: 0.0005
    lr: 0.0005
    maximize: False
    weight_decay: 0

Parameter Group 1
…
temp': 0.09, 'lamda': 1.0, 'seed': 9, 'test_bs': 10, 'smooth': 'slide', 'kappa': 7, 'ckpt_path': './ckpt/ucf__current.pkl', 'feat_dim': 1024, 'head_num': 1, 'hid_dim': 128, 'out_dim': 300, 'lr': 0.005, 'dropout': 0.1, 'train_bs': 128, 'max_seqlen': 200, 'max_epoch': 50, 'workers': 8, 'save_dir': './ckpt/', 'logs_dir': './log_info.log'}
[2023-08-24 15:55:10,297][main.py][line:139][INFO] total params:30.1014M
[2023-08-24 15:55:10,297][main.py][line:142][INFO] Training Mode
[2023-08-24 15:55:10,298][main.py][line:62][INFO] Model:XModel(
  (self_attention): XEncoder(
    (self_attn): TCA(
      (q): Linear(in_features=1024, out_features=128, bias=True)
      (k): Linear(in_features=1024, out_features=128, bias=True)
      (v): Linear(in_features=1024, out_features=128, bias=True)
      (o): Linear(in_features=128, out_features=1024, bias=True)
      (act): Softmax(dim=-1)
    )
    (linear1): Conv1d(1024, 512, kernel_size=(1,), stride=(1,))
    (linear2): Conv1d(512, 300, kernel_size=(1,), stride=(1,))
    (dropout1): Dropout(p=0.1, inplace=False)
    (dropout2): Dropout(p=0.1, inplace=False)
    (norm): LayerNorm((1024,), eps=1e-05, elementwise_affine=True)
    (loc_adj): DistanceAdj()
    (mgfn): mgfn(
      (to_tokens): Conv1d(1024, 128, kernel_size=(3,), stride=(1,), padding=(1,))
      (stages): ModuleList(
        (0): ModuleList(
          (0): Backbone(
            (layers): ModuleList(
              (0-2): 3 x ModuleList(
                (0): Conv1d(128, 128, kernel_size=(3,), stride=(1,), padding=(1,))
                (1): GLANCE(
                  (norm): LayerNorm()
                  (to_qkv): Conv1d(128, 192, kernel_size=(1,), stride=(1,), bias=False)
                  (to_out): Conv1d(64, 128, kernel_size=(1,), stride=(1,))
                )
                (2): Sequential(
                  (0): LayerNorm()
                  (1): Conv1d(128, 512, kernel_size=(1,), stride=(1,))
                  (2): GELU(approximate='none')
                  (3): Dropout(p=0.7, inplace=False)
                  (4): Conv1d(512, 128, kernel_size=(1,), stride=(1,))
                )
              )
            )
          )
          (1): Sequential(
            (0): LayerNorm()
            (1): Conv1d(128, 256, kernel_size=(1,), stride=(1,))
          )
        )
        (1): ModuleList(
          (0): Backbone(
            (layers): ModuleList(
              (0-2): 3 x ModuleList(
                (0): Conv1d(256, 256, kernel_size=(3,), stride=(1,), padding=(1,))
                (1): FOCUS(
                  (norm): BatchNorm1d(256, eps=1e-05, momentum=0.1, affine=True, track_running_stats=True)
                  (to_v): Conv1d(256, 128, kernel_size=(1,), stride=(1,), bias=False)
                  (rel_pos): Conv1d(2, 2, kernel_size=(5,), stride=(1,), padding=(2,), groups=2)
                  (to_out): Conv1d(128, 256, kernel_size=(1,), stride=(1,))
                )
                (2): Sequential(
                  (0): LayerNorm()
                  (1): Conv1d(256, 1024, kernel_size=(1,), stride=(1,))
                  (2): GELU(approximate='none')
                  (3): Dropout(p=0.7, inplace=False)
                  (4): Conv1d(1024, 256, kernel_size=(1,), stride=(1,))
                )
              )
            )
          )
          (1): Sequential(
            (0): LayerNorm()
            (1): Conv1d(256, 1024, kernel_size=(1,), stride=(1,))
          )
        )
        (2): ModuleList(
          (0): Backbone(
            (layers): ModuleList(
              (0-1): 2 x ModuleList(
                (0): Conv1d(1024, 1024, kernel_size=(3,), stride=(1,), padding=(1,))
                (1): FOCUS(
                  (norm): BatchNorm1d(1024, eps=1e-05, momentum=0.1, affine=True, track_running_stats=True)
                  (to_v): Conv1d(1024, 512, kernel_size=(1,), stride=(1,), bias=False)
                  (rel_pos): Conv1d(8, 8, kernel_size=(5,), stride=(1,), padding=(2,), groups=8)
                  (to_out): Conv1d(512, 1024, kernel_size=(1,), stride=(1,))
                )
                (2): Sequential(
                  (0): LayerNorm()
                  (1): Conv1d(1024, 4096, kernel_size=(1,), stride=(1,))
                  (2): GELU(approximate='none')
                  (3): Dropout(p=0.7, inplace=False)
                  (4): Conv1d(4096, 1024, kernel_size=(1,), stride=(1,))
                )
              )
            )
          )
          (1): None
        )
      )
      (to_logits): Sequential(
        (0): LayerNorm((1024,), eps=1e-05, elementwise_affine=True)
      )
      (to_mag): Conv1d(1, 128, kernel_size=(3,), stride=(1,), padding=(1,))
    )
  )
  (classifier): Conv1d(300, 1, kernel_size=(9,), stride=(1,))
  (dropout): Dropout(p=0.7, inplace=False)
)

[2023-08-24 15:55:10,298][main.py][line:63][INFO] Optimizer:Adam (
Parameter Group 0
    amsgrad: False
    betas: (0.9, 0.999)
    capturable: False
    differentiable: False
    eps: 1e-08
    foreach: None
    fused: None
    initial_lr: 0.001
    lr: 0.001
    maximize: False
    weight_decay: 0

Parameter Group 1
…
 'temp': 0.09, 'lamda': 1.0, 'seed': 9, 'test_bs': 10, 'smooth': 'slide', 'kappa': 7, 'ckpt_path': './ckpt/ucf__current.pkl', 'feat_dim': 1024, 'head_num': 1, 'hid_dim': 128, 'out_dim': 300, 'lr': 0.005, 'dropout': 0.1, 'train_bs': 64, 'max_seqlen': 32, 'max_epoch': 50, 'workers': 8, 'save_dir': './ckpt/', 'logs_dir': './log_info.log'}
[2023-08-24 17:03:14,310][main.py][line:139][INFO] total params:35.9893M
[2023-08-24 17:03:14,311][main.py][line:142][INFO] Training Mode
[2023-08-24 17:03:14,311][main.py][line:62][INFO] Model:XModel(
  (self_attention): XEncoder(
    (self_attn): TCA(
      (q): Linear(in_features=1024, out_features=128, bias=True)
      (k): Linear(in_features=1024, out_features=128, bias=True)
      (v): Linear(in_features=1024, out_features=128, bias=True)
      (o): Linear(in_features=128, out_features=1024, bias=True)
      (act): Softmax(dim=-1)
    )
    (linear1): Conv1d(1024, 512, kernel_size=(1,), stride=(1,))
    (linear2): Conv1d(512, 300, kernel_size=(1,), stride=(1,))
    (dropout1): Dropout(p=0.1, inplace=False)
    (dropout2): Dropout(p=0.1, inplace=False)
    (norm): LayerNorm((1024,), eps=1e-05, elementwise_affine=True)
    (loc_adj): DistanceAdj()
    (mgfn): mgfn(
      (to_tokens): Conv1d(1024, 512, kernel_size=(3,), stride=(1,), padding=(1,))
      (stages): ModuleList(
        (0): ModuleList(
          (0): Backbone(
            (layers): ModuleList(
              (0-2): 3 x ModuleList(
                (0): Conv1d(512, 512, kernel_size=(3,), stride=(1,), padding=(1,))
                (1): GLANCE(
                  (norm): LayerNorm()
                  (to_qkv): Conv1d(512, 192, kernel_size=(1,), stride=(1,), bias=False)
                  (to_out): Conv1d(64, 512, kernel_size=(1,), stride=(1,))
                )
                (2): Sequential(
                  (0): LayerNorm()
                  (1): Conv1d(512, 2048, kernel_size=(1,), stride=(1,))
                  (2): GELU(approximate='none')
                  (3): Dropout(p=0.1, inplace=False)
                  (4): Conv1d(2048, 512, kernel_size=(1,), stride=(1,))
                )
              )
            )
          )
          (1): Sequential(
            (0): LayerNorm()
            (1): Conv1d(512, 1024, kernel_size=(1,), stride=(1,))
          )
        )
        (1): ModuleList(
          (0): Backbone(
            (layers): ModuleList(
              (0-1): 2 x ModuleList(
                (0): Conv1d(1024, 1024, kernel_size=(3,), stride=(1,), padding=(1,))
                (1): FOCUS(
                  (norm): BatchNorm1d(1024, eps=1e-05, momentum=0.1, affine=True, track_running_stats=True)
                  (to_v): Conv1d(1024, 128, kernel_size=(1,), stride=(1,), bias=False)
                  (rel_pos): Conv1d(2, 2, kernel_size=(5,), stride=(1,), padding=(2,), groups=2)
                  (to_out): Conv1d(128, 1024, kernel_size=(1,), stride=(1,))
                )
                (2): Sequential(
                  (0): LayerNorm()
                  (1): Conv1d(1024, 4096, kernel_size=(1,), stride=(1,))
                  (2): GELU(approximate='none')
                  (3): Dropout(p=0.1, inplace=False)
                  (4): Conv1d(4096, 1024, kernel_size=(1,), stride=(1,))
                )
              )
            )
          )
          (1): None
        )
      )
      (to_logits): Sequential(
        (0): LayerNorm((1024,), eps=1e-05, elementwise_affine=True)
      )
      (to_mag): Conv1d(1, 512, kernel_size=(3,), stride=(1,), padding=(1,))
    )
  )
  (classifier): Conv1d(300, 1, kernel_size=(9,), stride=(1,))
  (dropout): Dropout(p=0.7, inplace=False)
)

[2023-08-24 17:03:14,311][main.py][line:63][INFO] Optimizer:Adam (
Parameter Group 0
    amsgrad: False
    betas: (0.9, 0.999)
    capturable: False
    differentiable: False
    eps: 1e-08
    foreach: None
    fused: None
    initial_lr: 0.001
    lr: 0.001
    maximize: False
    weight_decay: 0

Parameter Group 1
…
 'temp': 0.09, 'lamda': 1.0, 'seed': 9, 'test_bs': 10, 'smooth': 'slide', 'kappa': 7, 'ckpt_path': './ckpt/ucf__current.pkl', 'feat_dim': 1024, 'head_num': 1, 'hid_dim': 128, 'out_dim': 300, 'lr': 0.005, 'dropout': 0.1, 'train_bs': 64, 'max_seqlen': 32, 'max_epoch': 50, 'workers': 8, 'save_dir': './ckpt/', 'logs_dir': './log_info.log'}
[2023-08-24 17:34:43,581][main.py][line:139][INFO] total params:33.7275M
[2023-08-24 17:34:43,582][main.py][line:142][INFO] Training Mode
[2023-08-24 17:34:43,582][main.py][line:62][INFO] Model:XModel(
  (self_attention): XEncoder(
    (self_attn): TCA(
      (q): Linear(in_features=1024, out_features=128, bias=True)
      (k): Linear(in_features=1024, out_features=128, bias=True)
      (v): Linear(in_features=1024, out_features=128, bias=True)
      (o): Linear(in_features=128, out_features=1024, bias=True)
      (act): Softmax(dim=-1)
    )
    (linear1): Conv1d(1024, 512, kernel_size=(1,), stride=(1,))
    (linear2): Conv1d(512, 300, kernel_size=(1,), stride=(1,))
    (dropout1): Dropout(p=0.1, inplace=False)
    (dropout2): Dropout(p=0.1, inplace=False)
    (norm): LayerNorm((1024,), eps=1e-05, elementwise_affine=True)
    (loc_adj): DistanceAdj()
    (mgfn): mgfn(
      (to_tokens): Conv1d(1024, 32, kernel_size=(3,), stride=(1,), padding=(1,))
      (stages): ModuleList(
        (0): ModuleList(
          (0): Backbone(
            (layers): ModuleList(
              (0-2): 3 x ModuleList(
                (0): Conv1d(32, 32, kernel_size=(3,), stride=(1,), padding=(1,))
                (1): GLANCE(
                  (norm): LayerNorm()
                  (to_qkv): Conv1d(32, 192, kernel_size=(1,), stride=(1,), bias=False)
                  (to_out): Conv1d(64, 32, kernel_size=(1,), stride=(1,))
                )
                (2): Sequential(
                  (0): LayerNorm()
                  (1): Conv1d(32, 128, kernel_size=(1,), stride=(1,))
                  (2): GELU(approximate='none')
                  (3): Dropout(p=0.1, inplace=False)
                  (4): Conv1d(128, 32, kernel_size=(1,), stride=(1,))
                )
              )
            )
          )
          (1): Sequential(
            (0): LayerNorm()
            (1): Conv1d(32, 128, kernel_size=(1,), stride=(1,))
          )
        )
        (1): ModuleList(
          (0): Backbone(
            (layers): ModuleList(
              (0-2): 3 x ModuleList(
                (0): Conv1d(128, 128, kernel_size=(3,), stride=(1,), padding=(1,))
                (1): FOCUS(
                  (norm): BatchNorm1d(128, eps=1e-05, momentum=0.1, affine=True, track_running_stats=True)
                  (to_v): Conv1d(128, 256, kernel_size=(1,), stride=(1,), bias=False)
                  (rel_pos): Conv1d(4, 4, kernel_size=(5,), stride=(1,), padding=(2,), groups=4)
                  (to_out): Conv1d(256, 128, kernel_size=(1,), stride=(1,))
                )
                (2): Sequential(
                  (0): LayerNorm()
                  (1): Conv1d(128, 512, kernel_size=(1,), stride=(1,))
                  (2): GELU(approximate='none')
                  (3): Dropout(p=0.1, inplace=False)
                  (4): Conv1d(512, 128, kernel_size=(1,), stride=(1,))
                )
              )
            )
          )
          (1): Sequential(
            (0): LayerNorm()
            (1): Conv1d(128, 1024, kernel_size=(1,), stride=(1,))
          )
        )
        (2): ModuleList(
          (0): Backbone(
            (layers): ModuleList(
              (0-1): 2 x ModuleList(
                (0): Conv1d(1024, 1024, kernel_size=(3,), stride=(1,), padding=(1,))
                (1): FOCUS(
                  (norm): BatchNorm1d(1024, eps=1e-05, momentum=0.1, affine=True, track_running_stats=True)
                  (to_v): Conv1d(1024, 2048, kernel_size=(1,), stride=(1,), bias=False)
                  (rel_pos): Conv1d(32, 32, kernel_size=(5,), stride=(1,), padding=(2,), groups=32)
                  (to_out): Conv1d(2048, 1024, kernel_size=(1,), stride=(1,))
                )
                (2): Sequential(
                  (0): LayerNorm()
                  (1): Conv1d(1024, 4096, kernel_size=(1,), stride=(1,))
                  (2): GELU(approximate='none')
                  (3): Dropout(p=0.1, inplace=False)
                  (4): Conv1d(4096, 1024, kernel_size=(1,), stride=(1,))
                )
              )
            )
          )
          (1): None
        )
      )
      (to_logits): Sequential(
        (0): LayerNorm((1024,), eps=1e-05, elementwise_affine=True)
      )
      (to_mag): Conv1d(1, 32, kernel_size=(3,), stride=(1,), padding=(1,))
    )
  )
  (classifier): Conv1d(300, 1, kernel_size=(9,), stride=(1,))
  (dropout): Dropout(p=0.7, inplace=False)
)

[2023-08-24 17:34:43,582][main.py][line:63][INFO] Optimizer:Adam (
Parameter Group 0
    amsgrad: False
    betas: (0.9, 0.999)
    capturable: False
    differentiable: False
    eps: 1e-08
    foreach: None
    fused: None
    initial_lr: 0.001
    lr: 0.001
    maximize: False
    weight_decay: 0

Parameter Group 1
…
 'temp': 0.09, 'lamda': 1.0, 'seed': 9, 'test_bs': 10, 'smooth': 'slide', 'kappa': 7, 'ckpt_path': './ckpt/ucf__current.pkl', 'feat_dim': 1024, 'head_num': 1, 'hid_dim': 128, 'out_dim': 300, 'lr': 0.005, 'dropout': 0.1, 'train_bs': 64, 'max_seqlen': 200, 'max_epoch': 50, 'workers': 8, 'save_dir': './ckpt/', 'logs_dir': './log_info.log'}
[2023-08-24 18:58:30,333][main.py][line:139][INFO] total params:7.7021M
[2023-08-24 18:58:30,333][main.py][line:142][INFO] Training Mode
[2023-08-24 18:58:30,334][main.py][line:62][INFO] Model:XModel(
  (self_attention): XEncoder(
    (self_attn): TCA(
      (q): Linear(in_features=1024, out_features=128, bias=True)
      (k): Linear(in_features=1024, out_features=128, bias=True)
      (v): Linear(in_features=1024, out_features=128, bias=True)
      (o): Linear(in_features=128, out_features=1024, bias=True)
      (act): Softmax(dim=-1)
    )
    (linear1): Conv1d(1024, 512, kernel_size=(1,), stride=(1,))
    (linear2): Conv1d(512, 300, kernel_size=(1,), stride=(1,))
    (dropout1): Dropout(p=0.1, inplace=False)
    (dropout2): Dropout(p=0.1, inplace=False)
    (norm): LayerNorm((1024,), eps=1e-05, elementwise_affine=True)
    (loc_adj): DistanceAdj()
    (DR_DMU): WSAD(
      (embedding): Temporal(
        (conv_1): Sequential(
          (0): Conv1d(1024, 512, kernel_size=(3,), stride=(1,), padding=(1,))
          (1): ReLU()
        )
      )
      (triplet): TripletMarginLoss()
      (cls_head): ADCLS_head(
        (mlp): Sequential(
          (0): Linear(in_features=1024, out_features=128, bias=True)
          (1): ReLU()
          (2): Linear(in_features=128, out_features=1, bias=True)
          (3): Sigmoid()
        )
      )
      (Amemory): Memory_Unit(
        (sig): Sigmoid()
      )
      (Nmemory): Memory_Unit(
        (sig): Sigmoid()
      )
      (selfatt): Transformer(
        (layers): ModuleList(
          (0-1): 2 x ModuleList(
            (0): PreNorm(
              (norm): LayerNorm((512,), eps=1e-05, elementwise_affine=True)
              (fn): Attention(
                (attend): Softmax(dim=-1)
                (to_qkv): Linear(in_features=512, out_features=2048, bias=False)
                (to_out): Sequential(
                  (0): Linear(in_features=1024, out_features=512, bias=True)
                  (1): Dropout(p=0.5, inplace=False)
                )
              )
            )
            (1): PreNorm(
              (norm): LayerNorm((512,), eps=1e-05, elementwise_affine=True)
              (fn): FeedForward(
                (net): Sequential(
                  (0): Linear(in_features=512, out_features=512, bias=True)
                  (1): GELU(approximate='none')
                  (2): Dropout(p=0.5, inplace=False)
                  (3): Linear(in_features=512, out_features=512, bias=True)
                  (4): Dropout(p=0.5, inplace=False)
                )
              )
            )
          )
        )
      )
      (encoder_mu): Sequential(
        (0): Linear(in_features=512, out_features=512, bias=True)
      )
      (encoder_var): Sequential(
        (0): Linear(in_features=512, out_features=512, bias=True)
      )
      (relu): ReLU()
    )
  )
  (classifier): Conv1d(300, 1, kernel_size=(9,), stride=(1,))
)

[2023-08-24 18:58:30,334][main.py][line:63][INFO] Optimizer:Adam (
Parameter Group 0
    amsgrad: False
    betas: (0.9, 0.999)
    capturable: False
    differentiable: False
    eps: 1e-08
    foreach: None
    fused: None
    initial_lr: 0.0005
    lr: 0.0005
    maximize: False
    weight_decay: 0
)

[2023-08-24 18:59:31,411][main.py][line:103][INFO] C
…
 'temp': 0.09, 'lamda': 1.0, 'seed': 9, 'test_bs': 10, 'smooth': 'slide', 'kappa': 7, 'ckpt_path': './ckpt/ucf__current.pkl', 'feat_dim': 1024, 'head_num': 1, 'hid_dim': 128, 'out_dim': 300, 'lr': 0.005, 'dropout': 0.1, 'train_bs': 64, 'max_seqlen': 200, 'max_epoch': 50, 'workers': 8, 'save_dir': './ckpt/', 'logs_dir': './log_info.log'}
[2023-08-24 19:09:14,772][main.py][line:139][INFO] total params:7.5707M
[2023-08-24 19:09:14,772][main.py][line:142][INFO] Training Mode
[2023-08-24 19:09:14,772][main.py][line:62][INFO] Model:XModel(
  (self_attention): XEncoder(
    (self_attn): TCA(
      (q): Linear(in_features=1024, out_features=128, bias=True)
      (k): Linear(in_features=1024, out_features=128, bias=True)
      (v): Linear(in_features=1024, out_features=128, bias=True)
      (o): Linear(in_features=128, out_features=1024, bias=True)
      (act): Softmax(dim=-1)
    )
    (linear1): Conv1d(1024, 512, kernel_size=(1,), stride=(1,))
    (linear2): Conv1d(512, 300, kernel_size=(1,), stride=(1,))
    (dropout1): Dropout(p=0.1, inplace=False)
    (dropout2): Dropout(p=0.1, inplace=False)
    (norm): LayerNorm((1024,), eps=1e-05, elementwise_affine=True)
    (loc_adj): DistanceAdj()
    (DR_DMU): WSAD(
      (embedding): Temporal(
        (conv_1): Sequential(
          (0): Conv1d(1024, 512, kernel_size=(3,), stride=(1,), padding=(1,))
          (1): ReLU()
        )
      )
      (triplet): TripletMarginLoss()
      (Amemory): Memory_Unit(
        (sig): Sigmoid()
      )
      (Nmemory): Memory_Unit(
        (sig): Sigmoid()
      )
      (selfatt): Transformer(
        (layers): ModuleList(
          (0-1): 2 x ModuleList(
            (0): PreNorm(
              (norm): LayerNorm((512,), eps=1e-05, elementwise_affine=True)
              (fn): Attention(
                (attend): Softmax(dim=-1)
                (to_qkv): Linear(in_features=512, out_features=2048, bias=False)
                (to_out): Sequential(
                  (0): Linear(in_features=1024, out_features=512, bias=True)
                  (1): Dropout(p=0.5, inplace=False)
                )
              )
            )
            (1): PreNorm(
              (norm): LayerNorm((512,), eps=1e-05, elementwise_affine=True)
              (fn): FeedForward(
                (net): Sequential(
                  (0): Linear(in_features=512, out_features=512, bias=True)
                  (1): GELU(approximate='none')
                  (2): Dropout(p=0.5, inplace=False)
                  (3): Linear(in_features=512, out_features=512, bias=True)
                  (4): Dropout(p=0.5, inplace=False)
                )
              )
            )
          )
        )
      )
      (encoder_mu): Sequential(
        (0): Linear(in_features=512, out_features=512, bias=True)
      )
      (encoder_var): Sequential(
        (0): Linear(in_features=512, out_features=512, bias=True)
      )
      (relu): ReLU()
    )
  )
  (classifier): Conv1d(300, 1, kernel_size=(9,), stride=(1,))
)

[2023-08-24 19:09:14,772][main.py][line:63][INFO] Optimizer:Adam (
Parameter Group 0
    amsgrad: False
    betas: (0.9, 0.999)
    capturable: False
    differentiable: False
    eps: 1e-08
    foreach: None
    fused: None
    initial_lr: 0.0005
    lr: 0.0005
    maximize: False
    weight_decay: 0
)

[2023-08-24 19:09:26,360][main.py][line:103][INFO] C
…
 'temp': 0.09, 'lamda': 1.0, 'seed': 9, 'test_bs': 10, 'smooth': 'slide', 'kappa': 7, 'ckpt_path': './ckpt/ucf__current.pkl', 'feat_dim': 1024, 'head_num': 1, 'hid_dim': 128, 'out_dim': 300, 'lr': 0.005, 'dropout': 0.1, 'train_bs': 64, 'max_seqlen': 200, 'max_epoch': 50, 'workers': 8, 'save_dir': './ckpt/', 'logs_dir': './log_info.log'}
[2023-08-25 00:53:42,755][main.py][line:142][INFO] total params:7.5707M
[2023-08-25 00:53:42,756][main.py][line:145][INFO] Training Mode
[2023-08-25 00:53:42,756][main.py][line:65][INFO] Model:XModel(
  (self_attention): XEncoder(
    (self_attn): TCA(
      (q): Linear(in_features=1024, out_features=128, bias=True)
      (k): Linear(in_features=1024, out_features=128, bias=True)
      (v): Linear(in_features=1024, out_features=128, bias=True)
      (o): Linear(in_features=128, out_features=1024, bias=True)
      (act): Softmax(dim=-1)
    )
    (linear1): Conv1d(1024, 512, kernel_size=(1,), stride=(1,))
    (linear2): Conv1d(512, 300, kernel_size=(1,), stride=(1,))
    (dropout1): Dropout(p=0.1, inplace=False)
    (dropout2): Dropout(p=0.1, inplace=False)
    (norm): LayerNorm((1024,), eps=1e-05, elementwise_affine=True)
    (loc_adj): DistanceAdj()
    (DR_DMU): WSAD(
      (triplet): TripletMarginLoss()
      (Amemory): Memory_Unit(
        (sig): Sigmoid()
      )
      (Nmemory): Memory_Unit(
        (sig): Sigmoid()
      )
      (selfatt): Transformer(
        (layers): ModuleList(
          (0-1): 2 x ModuleList(
            (0): PreNorm(
              (norm): LayerNorm((512,), eps=1e-05, elementwise_affine=True)
              (fn): Attention(
                (attend): Softmax(dim=-1)
                (to_qkv): Linear(in_features=512, out_features=2048, bias=False)
                (to_out): Sequential(
                  (0): Linear(in_features=1024, out_features=512, bias=True)
                  (1): Dropout(p=0.5, inplace=False)
                )
              )
            )
            (1): PreNorm(
              (norm): LayerNorm((512,), eps=1e-05, elementwise_affine=True)
              (fn): FeedForward(
                (net): Sequential(
                  (0): Linear(in_features=512, out_features=512, bias=True)
                  (1): GELU(approximate='none')
                  (2): Dropout(p=0.5, inplace=False)
                  (3): Linear(in_features=512, out_features=512, bias=True)
                  (4): Dropout(p=0.5, inplace=False)
                )
              )
            )
          )
        )
      )
      (encoder_mu): Sequential(
        (0): Linear(in_features=512, out_features=512, bias=True)
      )
      (encoder_var): Sequential(
        (0): Linear(in_features=512, out_features=512, bias=True)
      )
      (relu): ReLU()
    )
    (embedding): Temporal(
      (conv_1): Sequential(
        (0): Conv1d(1024, 512, kernel_size=(3,), stride=(1,), padding=(1,))
        (1): ReLU()
      )
    )
  )
  (classifier): Conv1d(300, 1, kernel_size=(9,), stride=(1,))
)

[2023-08-25 00:53:42,756][main.py][line:66][INFO] Optimizer:Adam (
Parameter Group 0
    amsgrad: False
    betas: (0.9, 0.999)
    capturable: False
    differentiable: False
    eps: 1e-08
    foreach: None
    fused: None
    lr: 0.0005
    maximize: False
    weight_decay: 0
)

[2023-08-25 00:55:08,265][main.py][line:106][INFO] Config:{'dataset': 'ucf-
…
ue, 't_step': 9, 'temp': 0.09, 'lamda': 0, 'seed': 2023, 'test_bs': 10, 'smooth': 'slide', 'kappa': 7, 'ckpt_path': './ckpt/ucf__current.pkl', 'feat_dim': 1024, 'head_num': 1, 'hid_dim': 128, 'out_dim': 300, 'lr': 0.005, 'dropout': 0.1, 'train_bs': 64, 'max_seqlen': 200, 'max_epoch': 100, 'workers': 8, 'save_dir': './ckpt/', 'logs_dir': './log_info.log'}
[2023-08-25 16:10:43,606][main.py][line:143][INFO] total params:7.0451M
[2023-08-25 16:10:43,606][main.py][line:146][INFO] Training Mode
[2023-08-25 16:10:43,607][main.py][line:65][INFO] Model:XModel(
  (self_attention): XEncoder(
    (linear1): Conv1d(1024, 512, kernel_size=(1,), stride=(1,))
    (linear2): Conv1d(512, 300, kernel_size=(1,), stride=(1,))
    (dropout1): Dropout(p=0.1, inplace=False)
    (dropout2): Dropout(p=0.1, inplace=False)
    (norm): LayerNorm((1024,), eps=1e-05, elementwise_affine=True)
    (loc_adj): DistanceAdj()
    (DR_DMU): WSAD(
      (embedding): Temporal(
        (conv_1): Sequential(
          (0): Conv1d(1024, 512, kernel_size=(3,), stride=(1,), padding=(1,))
          (1): ReLU()
        )
      )
      (triplet): TripletMarginLoss()
      (Amemory): Memory_Unit(
        (sig): Sigmoid()
      )
      (Nmemory): Memory_Unit(
        (sig): Sigmoid()
      )
      (selfatt): Transformer(
        (layers): ModuleList(
          (0-1): 2 x ModuleList(
            (0): PreNorm(
              (norm): LayerNorm((512,), eps=1e-05, elementwise_affine=True)
              (fn): Attention(
                (attend): Softmax(dim=-1)
                (to_qkv): Linear(in_features=512, out_features=2048, bias=False)
                (to_out): Sequential(
                  (0): Linear(in_features=1024, out_features=512, bias=True)
                  (1): Dropout(p=0.5, inplace=False)
                )
              )
            )
            (1): PreNorm(
              (norm): LayerNorm((512,), eps=1e-05, elementwise_affine=True)
              (fn): FeedForward(
                (net): Sequential(
                  (0): Linear(in_features=512, out_features=512, bias=True)
                  (1): GELU(approximate='none')
                  (2): Dropout(p=0.5, inplace=False)
                  (3): Linear(in_features=512, out_features=512, bias=True)
                  (4): Dropout(p=0.5, inplace=False)
                )
              )
            )
          )
        )
      )
      (encoder_mu): Sequential(
        (0): Linear(in_features=512, out_features=512, bias=True)
      )
      (encoder_var): Sequential(
        (0): Linear(in_features=512, out_features=512, bias=True)
      )
      (relu): ReLU()
    )
  )
  (classifier): Conv1d(300, 1, kernel_size=(9,), stride=(1,))
)

[2023-08-25 16:10:43,607][main.py][line:66][INFO] Optimizer:Adam (
Parameter Group 0
    amsgrad: False
    betas: (0.9, 0.999)
    capturable: False
    differentiable: False
    eps: 1e-08
    foreach: None
    fused: None
    lr: 0.0003
    maximize: False
    weight_decay: 5e-05
)

[2023-08-25 16:10:51,055][main.py][line:69][INFO] Random initialize AUCAUC:0.6062 Anomaly AUC:0.57717
…
mp': 0.09, 'lamda': 1.0, 'seed': 2023, 'test_bs': 10, 'smooth': 'slide', 'kappa': 7, 'ckpt_path': './ckpt/ucf__current.pkl', 'feat_dim': 1024, 'head_num': 1, 'hid_dim': 128, 'out_dim': 300, 'lr': 0.005, 'dropout': 0.1, 'train_bs': 64, 'max_seqlen': 200, 'max_epoch': 100, 'workers': 8, 'save_dir': './ckpt/', 'logs_dir': './log_info.log'}
[2023-08-25 16:30:24,771][main.py][line:143][INFO] total params:3.3693M
[2023-08-25 16:30:24,771][main.py][line:146][INFO] Training Mode
[2023-08-25 16:30:24,771][main.py][line:65][INFO] Model:XModel(
  (self_attention): XEncoder(
    (self_attn): TCA(
      (q): Linear(in_features=1024, out_features=128, bias=True)
      (k): Linear(in_features=1024, out_features=128, bias=True)
      (v): Linear(in_features=1024, out_features=128, bias=True)
      (o): Linear(in_features=128, out_features=1024, bias=True)
      (act): Softmax(dim=-1)
    )
    (linear1): Conv1d(1024, 512, kernel_size=(1,), stride=(1,))
    (linear2): Conv1d(512, 300, kernel_size=(1,), stride=(1,))
    (dropout1): Dropout(p=0.1, inplace=False)
    (dropout2): Dropout(p=0.1, inplace=False)
    (norm): LayerNorm((1024,), eps=1e-05, elementwise_affine=True)
    (loc_adj): DistanceAdj()
    (DR_DMU): WSAD(
      (embedding): Temporal(
        (conv_1): Sequential(
          (0): Conv1d(1024, 512, kernel_size=(3,), stride=(1,), padding=(1,))
          (1): ReLU()
        )
      )
      (triplet): TripletMarginLoss()
      (Amemory): Memory_Unit(
        (sig): Sigmoid()
      )
      (Nmemory): Memory_Unit(
        (sig): Sigmoid()
      )
      (encoder_mu): Sequential(
        (0): Linear(in_features=512, out_features=512, bias=True)
      )
      (encoder_var): Sequential(
        (0): Linear(in_features=512, out_features=512, bias=True)
      )
      (relu): ReLU()
    )
  )
  (classifier): Conv1d(300, 1, kernel_size=(9,), stride=(1,))
)

[2023-08-25 16:30:24,771][main.py][line:66][INFO] Optimizer:Adam (
Parameter Group 0
    amsgrad: False
    betas: (0.9, 0.999)
    capturable: False
    differentiable: False
    eps: 1e-08
    foreach: None
    fused: None
    lr: 0.0003
    maximize: False
    weight_decay: 5e-05
)

[2023-08-25 16:30:35,226][main.py][line:69][INFO] Random initialize AUCAUC:0.4335 Anomaly AUC:0.46871
…
, 't_step': 9, 'temp': 0.09, 'lamda': 1.0, 'seed': 2023, 'test_bs': 10, 'smooth': 'slide', 'kappa': 7, 'ckpt_path': './ckpt/ucf__current.pkl', 'feat_dim': 1024, 'head_num': 1, 'hid_dim': 128, 'out_dim': 300, 'lr': 0.005, 'dropout': 0.1, 'train_bs': 64, 'max_seqlen': 200, 'max_epoch': 100, 'workers': 8, 'save_dir': './ckpt/', 'logs_dir': './log_info.log'}
[2023-08-25 21:27:21,301][main.py][line:145][INFO] total params:2.8436M
[2023-08-25 21:27:21,301][main.py][line:148][INFO] Training Mode
[2023-08-25 21:27:21,301][main.py][line:67][INFO] Model:XModel(
  (self_attention): XEncoder(
    (linear1): Conv1d(1024, 512, kernel_size=(1,), stride=(1,))
    (linear2): Conv1d(512, 300, kernel_size=(1,), stride=(1,))
    (dropout1): Dropout(p=0.1, inplace=False)
    (dropout2): Dropout(p=0.1, inplace=False)
    (norm): LayerNorm((1024,), eps=1e-05, elementwise_affine=True)
    (loc_adj): DistanceAdj()
    (DR_DMU): WSAD(
      (embedding): Temporal(
        (conv_1): Sequential(
          (0): Conv1d(1024, 512, kernel_size=(3,), stride=(1,), padding=(1,))
          (1): ReLU()
        )
      )
      (triplet): TripletMarginLoss()
      (Amemory): Memory_Unit(
        (sig): Sigmoid()
      )
      (Nmemory): Memory_Unit(
        (sig): Sigmoid()
      )
      (encoder_mu): Sequential(
        (0): Linear(in_features=512, out_features=512, bias=True)
      )
      (encoder_var): Sequential(
        (0): Linear(in_features=512, out_features=512, bias=True)
      )
      (relu): ReLU()
    )
  )
  (classifier): Conv1d(300, 1, kernel_size=(9,), stride=(1,))
)

[2023-08-25 21:27:21,301][main.py][line:68][INFO] Optimizer:Adam (
Parameter Group 0
    amsgrad: False
    betas: (0.9, 0.999)
    capturable: False
    differentiable: False
    eps: 1e-08
    foreach: None
    fused: None
    lr: 0.0005
    maximize: False
    weight_decay: 5e-05
)

[2023-08-25 21:27:36,780][main.py][line:109][INFO] Config:{'dataset': '
…
mp': 0.09, 'lamda': 0.8, 'seed': 2023, 'test_bs': 10, 'smooth': 'slide', 'kappa': 7, 'ckpt_path': './ckpt/ucf__current.pkl', 'feat_dim': 1024, 'head_num': 1, 'hid_dim': 128, 'out_dim': 300, 'lr': 0.005, 'dropout': 0.1, 'train_bs': 64, 'max_seqlen': 200, 'max_epoch': 100, 'workers': 8, 'save_dir': './ckpt/', 'logs_dir': './log_info.log'}
[2023-08-26 11:22:17,876][main.py][line:148][INFO] total params:9.6689M
[2023-08-26 11:22:17,876][main.py][line:151][INFO] Training Mode
[2023-08-26 11:22:17,876][main.py][line:70][INFO] Model:XModel(
  (self_attention): XEncoder(
    (self_attn): TCA(
      (q): Linear(in_features=1024, out_features=128, bias=True)
      (k): Linear(in_features=1024, out_features=128, bias=True)
      (v): Linear(in_features=1024, out_features=128, bias=True)
      (o): Linear(in_features=128, out_features=1024, bias=True)
      (act): Softmax(dim=-1)
    )
    (linear1): Conv1d(1024, 512, kernel_size=(1,), stride=(1,))
    (linear2): Conv1d(512, 300, kernel_size=(1,), stride=(1,))
    (dropout1): Dropout(p=0.1, inplace=False)
    (dropout2): Dropout(p=0.1, inplace=False)
    (norm): LayerNorm((1024,), eps=1e-05, elementwise_affine=True)
    (loc_adj): DistanceAdj()
    (DR_DMU): WSAD(
      (embedding): Temporal(
        (conv_1): Sequential(
          (0): Conv1d(1024, 512, kernel_size=(3,), stride=(1,), padding=(1,))
          (1): ReLU()
        )
      )
      (triplet): TripletMarginLoss()
      (Amemory): Memory_Unit(
        (sig): Sigmoid()
      )
      (Nmemory): Memory_Unit(
        (sig): Sigmoid()
      )
      (selfatt): Transformer(
        (layers): ModuleList(
          (0-1): 2 x ModuleList(
            (0): PreNorm(
              (norm): LayerNorm((512,), eps=1e-05, elementwise_affine=True)
              (fn): Attention(
                (attend): Softmax(dim=-1)
                (to_qkv): Linear(in_features=512, out_features=2048, bias=False)
                (to_out): Sequential(
                  (0): Linear(in_features=1024, out_features=512, bias=True)
                  (1): Dropout(p=0.5, inplace=False)
                )
              )
            )
            (1): PreNorm(
              (norm): LayerNorm((512,), eps=1e-05, elementwise_affine=True)
              (fn): FeedForward(
                (net): Sequential(
                  (0): Linear(in_features=512, out_features=512, bias=True)
                  (1): GELU(approximate='none')
                  (2): Dropout(p=0.5, inplace=False)
                  (3): Linear(in_features=512, out_features=512, bias=True)
                  (4): Dropout(p=0.5, inplace=False)
                )
              )
            )
          )
        )
      )
      (encoder_mu): Sequential(
        (0): Linear(in_features=512, out_features=512, bias=True)
      )
      (encoder_var): Sequential(
        (0): Linear(in_features=512, out_features=512, bias=True)
      )
      (relu): ReLU()
    )
    (cat): Linear(in_features=2048, out_features=1024, bias=True)
  )
  (classifier): Conv1d(300, 1, kernel_size=(9,), stride=(1,))
)

[2023-08-26 11:22:17,876][main.py][line:71][INFO] Optimizer:Adam (
Parameter Group 0
    amsgrad: False
    betas: (0.9, 0.999)
    capturable: False
    differentiable: False
    eps: 1e-08
    foreach: None
    fused: None
    initial_lr: 0.0005
    lr: 5e-05
    maximize: False
    weight_decay: 0

Parameter Group 1
    amsgrad: False
    betas: (0.9, 0.999)
…
': 2023, 'test_bs': 10, 'smooth': 'slide', 'kappa': 7, 'ckpt_path': './ckpt/ucf__current.pkl', 'a_nums': 30, 'n_nums': 30, 'feat_dim': 1024, 'head_num': 1, 'hid_dim': 128, 'out_dim': 300, 'lr': 0.0005, 'dropout': 0.1, 'train_bs': 64, 'max_seqlen': 200, 'max_epoch': 100, 'workers': 8, 'save_dir': './ckpt/', 'logs_dir': './log_info.log'}
[2023-09-08 20:33:20,734][main.py][line:165][INFO] total params:17.0166M
[2023-09-08 20:33:20,735][main.py][line:168][INFO] Training Mode
[2023-09-08 20:33:20,735][main.py][line:78][INFO] Model:XModel(
  (self_attention): XEncoder(
    (self_attn): TCA(
      (q): Linear(in_features=1024, out_features=128, bias=True)
      (k): Linear(in_features=1024, out_features=128, bias=True)
      (v): Linear(in_features=1024, out_features=128, bias=True)
      (o): Linear(in_features=128, out_features=1024, bias=True)
      (act): Softmax(dim=-1)
    )
    (linear1): Conv1d(1024, 512, kernel_size=(1,), stride=(1,))
    (linear2): Conv1d(512, 300, kernel_size=(1,), stride=(1,))
    (dropout1): Dropout(p=0, inplace=False)
    (dropout2): Dropout(p=0.1, inplace=False)
    (norm): LayerNorm((1024,), eps=1e-05, elementwise_affine=True)
    (loc_adj): DistanceAdj()
    (DR_DMU): WSAD(
      (embedding): Temporal(
        (conv_1): Sequential(
          (0): Conv1d(1024, 1024, kernel_size=(3,), stride=(1,), padding=(1,))
          (1): ReLU()
        )
      )
      (triplet): TripletMarginLoss()
      (Amemory): Memory_Unit(
        (sig): Sigmoid()
      )
      (Nmemory): Memory_Unit(
        (sig): Sigmoid()
      )
      (selfatt): Transformer(
        (layers): ModuleList(
          (0-1): 2 x ModuleList(
            (0): PreNorm(
              (norm): LayerNorm((1024,), eps=1e-05, elementwise_affine=True)
              (fn): Attention(
                (attend): Softmax(dim=-1)
                (to_qkv): Linear(in_features=1024, out_features=2048, bias=False)
                (to_out): Sequential(
                  (0): Linear(in_features=1024, out_features=1024, bias=True)
                  (1): Dropout(p=0.5, inplace=False)
                )
              )
            )
            (1): PreNorm(
              (norm): LayerNorm((1024,), eps=1e-05, elementwise_affine=True)
              (fn): FeedForward(
                (net): Sequential(
                  (0): Linear(in_features=1024, out_features=1024, bias=True)
                  (1): GELU(approximate='none')
                  (2): Dropout(p=0.5, inplace=False)
                  (3): Linear(in_features=1024, out_features=1024, bias=True)
                  (4): Dropout(p=0.5, inplace=False)
                )
              )
            )
          )
        )
      )
      (encoder_mu): Sequential(
        (0): Linear(in_features=1024, out_features=1024, bias=True)
      )
      (encoder_var): Sequential(
        (0): Linear(in_features=1024, out_features=1024, bias=True)
      )
      (relu): ReLU()
    )
  )
  (classifier): Conv1d(300, 1, kernel_size=(9,), stride=(1,))
)

[2023-09-08 20:33:20,735][main.py][line:79][INFO] Optimizer:Adam (
Parameter Group 0
    amsgrad: False
    betas: (0.9, 0.999)
    capturable: False
    differentiable: False
    eps: 1e-08
    foreach: None
    fused: None
    lr: 0.0005
    maximize: False
    weight_decay: 5e-05
)

[2023-09-08 20:33:28,488][main.py][line:82][INFO] Random initialize AUCAUC:0.5283 Anomaly AUC:0.51616
…
d': 2023, 'test_bs': 10, 'smooth': 'slide', 'kappa': 7, 'ckpt_path': './ckpt/ucf__current.pkl', 'a_nums': 50, 'n_nums': 50, 'feat_dim': 1024, 'head_num': 1, 'hid_dim': 128, 'out_dim': 300, 'lr': 0.0001, 'dropout': 0.1, 'train_bs': 64, 'max_seqlen': 200, 'max_epoch': 100, 'workers': 8, 'save_dir': './ckpt/', 'logs_dir': './log_info.log'}
[2023-09-09 15:21:58,082][main.py][line:165][INFO] total params:8.0853M
[2023-09-09 15:21:58,082][main.py][line:168][INFO] Training Mode
[2023-09-09 15:21:58,083][main.py][line:78][INFO] Model:XModel(
  (self_attention): XEncoder(
    (self_attn): TCA(
      (q): Linear(in_features=1024, out_features=128, bias=True)
      (k): Linear(in_features=1024, out_features=128, bias=True)
      (v): Linear(in_features=1024, out_features=128, bias=True)
      (o): Linear(in_features=128, out_features=1024, bias=True)
      (act): Softmax(dim=-1)
    )
    (linear1): Conv1d(1024, 512, kernel_size=(1,), stride=(1,))
    (linear2): Conv1d(512, 300, kernel_size=(1,), stride=(1,))
    (dropout1): Dropout(p=0.1, inplace=False)
    (dropout2): Dropout(p=0.1, inplace=False)
    (norm): LayerNorm((1024,), eps=1e-05, elementwise_affine=True)
    (loc_adj): DistanceAdj()
    (DR_DMU): WSAD(
      (embedding): Temporal(
        (conv_1): Sequential(
          (0): Conv1d(1024, 512, kernel_size=(3,), stride=(1,), padding=(1,))
          (1): ReLU()
        )
      )
      (triplet): TripletMarginLoss()
      (Amemory): Memory_Unit(
        (sig): Sigmoid()
      )
      (Nmemory): Memory_Unit(
        (sig): Sigmoid()
      )
      (selfatt): Transformer(
        (layers): ModuleList(
          (0-1): 2 x ModuleList(
            (0): PreNorm(
              (norm): LayerNorm((512,), eps=1e-05, elementwise_affine=True)
              (fn): Attention(
                (attend): Softmax(dim=-1)
                (to_qkv): Linear(in_features=512, out_features=2048, bias=False)
                (to_out): Sequential(
                  (0): Linear(in_features=1024, out_features=512, bias=True)
                  (1): Dropout(p=0.5, inplace=False)
                )
              )
            )
            (1): PreNorm(
              (norm): LayerNorm((512,), eps=1e-05, elementwise_affine=True)
              (fn): FeedForward(
                (net): Sequential(
                  (0): Linear(in_features=512, out_features=512, bias=True)
                  (1): GELU(approximate='none')
                  (2): Dropout(p=0.5, inplace=False)
                  (3): Linear(in_features=512, out_features=512, bias=True)
                  (4): Dropout(p=0.5, inplace=False)
                )
              )
            )
          )
        )
      )
      (encoder_mu): Sequential(
        (0): Linear(in_features=512, out_features=512, bias=True)
      )
      (encoder_var): Sequential(
        (0): Linear(in_features=512, out_features=512, bias=True)
      )
      (embedding2): Linear(in_features=1024, out_features=512, bias=True)
      (relu): ReLU()
    )
  )
  (classifier): Conv1d(300, 1, kernel_size=(9,), stride=(1,))
  (dropout): Dropout(p=0.1, inplace=False)
)

[2023-09-09 15:21:58,083][main.py][line:79][INFO] Optimizer:Adam (
Parameter Group 0
    amsgrad: False
    betas: (0.9, 0.999)
    capturable: False
    differentiable: False
    eps: 1e-08
    foreach: None
    fused: None
    initial_lr: 0.0001
    lr: 0.0001
    maximize: False
    weight_decay: 5e-05
)

[2023-09-09 15:22:06,124][main.py][line:82][INFO] Random initialize AUCAUC:0.6041 Anomaly AUC:0.57831
…
d': 2023, 'test_bs': 10, 'smooth': 'slide', 'kappa': 7, 'ckpt_path': './ckpt/ucf__current.pkl', 'a_nums': 50, 'n_nums': 50, 'feat_dim': 1024, 'head_num': 1, 'hid_dim': 128, 'out_dim': 300, 'lr': 0.0001, 'dropout': 0.1, 'train_bs': 64, 'max_seqlen': 200, 'max_epoch': 100, 'workers': 8, 'save_dir': './ckpt/', 'logs_dir': './log_info.log'}
[2023-09-09 15:27:19,171][main.py][line:165][INFO] total params:8.6101M
[2023-09-09 15:27:19,172][main.py][line:168][INFO] Training Mode
[2023-09-09 15:27:19,172][main.py][line:78][INFO] Model:XModel(
  (self_attention): XEncoder(
    (self_attn): TCA(
      (q): Linear(in_features=1024, out_features=128, bias=True)
      (k): Linear(in_features=1024, out_features=128, bias=True)
      (v): Linear(in_features=1024, out_features=128, bias=True)
      (o): Linear(in_features=128, out_features=1024, bias=True)
      (act): Softmax(dim=-1)
    )
    (linear1): Conv1d(1024, 512, kernel_size=(1,), stride=(1,))
    (linear2): Conv1d(512, 300, kernel_size=(1,), stride=(1,))
    (dropout1): Dropout(p=0.1, inplace=False)
    (dropout2): Dropout(p=0.1, inplace=False)
    (norm): LayerNorm((1024,), eps=1e-05, elementwise_affine=True)
    (loc_adj): DistanceAdj()
    (DR_DMU): WSAD(
      (embedding): Temporal(
        (conv_1): Sequential(
          (0): Conv1d(1024, 512, kernel_size=(3,), stride=(1,), padding=(1,))
          (1): ReLU()
        )
      )
      (triplet): TripletMarginLoss()
      (Amemory): Memory_Unit(
        (sig): Sigmoid()
      )
      (Nmemory): Memory_Unit(
        (sig): Sigmoid()
      )
      (selfatt): Transformer(
        (layers): ModuleList(
          (0-1): 2 x ModuleList(
            (0): PreNorm(
              (norm): LayerNorm((512,), eps=1e-05, elementwise_affine=True)
              (fn): Attention(
                (attend): Softmax(dim=-1)
                (to_qkv): Linear(in_features=512, out_features=2048, bias=False)
                (to_out): Sequential(
                  (0): Linear(in_features=1024, out_features=512, bias=True)
                  (1): Dropout(p=0.5, inplace=False)
                )
              )
            )
            (1): PreNorm(
              (norm): LayerNorm((512,), eps=1e-05, elementwise_affine=True)
              (fn): FeedForward(
                (net): Sequential(
                  (0): Linear(in_features=512, out_features=512, bias=True)
                  (1): GELU(approximate='none')
                  (2): Dropout(p=0.5, inplace=False)
                  (3): Linear(in_features=512, out_features=512, bias=True)
                  (4): Dropout(p=0.5, inplace=False)
                )
              )
            )
          )
        )
      )
      (encoder_mu): Sequential(
        (0): Linear(in_features=512, out_features=512, bias=True)
      )
      (encoder_var): Sequential(
        (0): Linear(in_features=512, out_features=512, bias=True)
      )
      (embedding2): Linear(in_features=1024, out_features=512, bias=True)
      (embedding3): Linear(in_features=1024, out_features=512, bias=True)
      (relu): ReLU()
    )
  )
  (classifier): Conv1d(300, 1, kernel_size=(9,), stride=(1,))
  (dropout): Dropout(p=0.1, inplace=False)
)

[2023-09-09 15:27:19,172][main.py][line:79][INFO] Optimizer:Adam (
Parameter Group 0
    amsgrad: False
    betas: (0.9, 0.999)
    capturable: False
    differentiable: False
    eps: 1e-08
    foreach: None
    fused: None
    initial_lr: 0.0001
    lr: 0.0001
    maximize: False
    weight_decay: 5e-05
)

[2023-09-09 15:27:27,383][main.py][line:82][INFO] Random initialize AUCAUC:0.4906 Anomaly AUC:0.48936
…
': 2023, 'test_bs': 10, 'smooth': 'slide', 'kappa': 7, 'ckpt_path': './ckpt/ucf__current.pkl', 'a_nums': 50, 'n_nums': 50, 'feat_dim': 1024, 'head_num': 1, 'hid_dim': 128, 'out_dim': 300, 'lr': 0.0001, 'dropout': 0.5, 'train_bs': 64, 'max_seqlen': 200, 'max_epoch': 100, 'workers': 8, 'save_dir': './ckpt/', 'logs_dir': './log_info.log'}
[2023-09-09 17:06:34,928][main.py][line:165][INFO] total params:39.0547M
[2023-09-09 17:06:34,929][main.py][line:168][INFO] Training Mode
[2023-09-09 17:06:34,930][main.py][line:78][INFO] Model:XModel(
  (self_attention): XEncoder(
    (self_attn): TCA(
      (q): Linear(in_features=1024, out_features=128, bias=True)
      (k): Linear(in_features=1024, out_features=128, bias=True)
      (v): Linear(in_features=1024, out_features=128, bias=True)
      (o): Linear(in_features=128, out_features=1024, bias=True)
      (act): Softmax(dim=-1)
    )
    (linear1): Conv1d(1024, 512, kernel_size=(1,), stride=(1,))
    (linear2): Conv1d(512, 300, kernel_size=(1,), stride=(1,))
    (dropout1): Dropout(p=0.5, inplace=False)
    (dropout2): Dropout(p=0.5, inplace=False)
    (norm): LayerNorm((1024,), eps=1e-05, elementwise_affine=True)
    (loc_adj): DistanceAdj()
    (DR_DMU): WSAD(
      (embedding): Temporal(
        (conv_1): Sequential(
          (0): Conv1d(1024, 512, kernel_size=(3,), stride=(1,), padding=(1,))
          (1): ReLU()
        )
      )
      (triplet): TripletMarginLoss()
      (Amemory): Memory_Unit(
        (sig): Sigmoid()
      )
      (Nmemory): Memory_Unit(
        (sig): Sigmoid()
      )
      (selfatt): Transformer(
        (layers): ModuleList(
          (0-3): 4 x ModuleList(
            (0): PreNorm(
              (norm): LayerNorm((512,), eps=1e-05, elementwise_affine=True)
              (fn): Attention(
                (attend): Softmax(dim=-1)
                (to_qkv): Linear(in_features=512, out_features=2048, bias=False)
                (to_out): Sequential(
                  (0): Linear(in_features=1024, out_features=512, bias=True)
                  (1): Dropout(p=0.5, inplace=False)
                )
              )
            )
            (1): PreNorm(
              (norm): LayerNorm((512,), eps=1e-05, elementwise_affine=True)
              (fn): FeedForward(
                (net): Sequential(
                  (0): Linear(in_features=512, out_features=512, bias=True)
                  (1): GELU(approximate='none')
                  (2): Dropout(p=0.5, inplace=False)
                  (3): Linear(in_features=512, out_features=512, bias=True)
                  (4): Dropout(p=0.5, inplace=False)
                )
              )
            )
          )
        )
      )
      (encoder_mu): Sequential(
        (0): Linear(in_features=512, out_features=512, bias=True)
      )
      (encoder_var): Sequential(
        (0): Linear(in_features=512, out_features=512, bias=True)
      )
      (relu): ReLU()
      (embedding2): Temporal(
        (conv_1): Sequential(
          (0): Conv1d(2048, 1024, kernel_size=(3,), stride=(1,), padding=(1,))
          (1): ReLU()
        )
      )
      (selfatt2): Transformer(
        (layers): ModuleList(
          (0-3): 4 x ModuleList(
            (0): PreNorm(
              (norm): LayerNorm((1024,), eps=1e-05, elementwise_affine=True)
              (fn): Attention(
                (attend): Softmax(dim=-1)
                (to_qkv): Linear(in_features=1024, out_features=2048, bias=False)
                (to_out): Sequential(
                  (0): Linear(in_features=1024, out_features=1024, bias=True)
                  (1): Dropout(p=0.5, inplace=False)
                )
              )
            )
            (1): PreNorm(
              (norm): LayerNorm((1024,), eps=1e-05, elementwise_affine=True)
              (fn): FeedForward(
                (net): Sequential(
                  (0): Linear(in_features=1024, out_features=1024, bias=True)
                  (1): GELU(approximate='none')
                  (2): Dropout(p=0.5, inplace=False)
                  (3): Linear(in_features=1024, out_features=1024, bias=True)
                  (4): Dropout(p=0.5, inplace=False)
                )
              )
            )
          )
        )
      )
    )
  )
  (classifier): Conv1d(300, 1, kernel_size=(9,), stride=(1,))
  (dropout): Dropout(p=0.5, inplace=False)
)

[2023-09-09 17:06:34,930][main.py][line:79][INFO] Optimizer:Adam (
Parameter Group 0
    amsgrad: False
    betas: (0.9, 0.999)
    capturable: False
    differentiable: False
    eps: 1e-08
    foreach: None
    fused: None
    initial_lr: 0.0001
    lr: 0.0001
    maximize: False
    weight_decay: 5e-05
)

[2023
…
': 2023, 'test_bs': 10, 'smooth': 'slide', 'kappa': 7, 'ckpt_path': './ckpt/ucf__current.pkl', 'a_nums': 50, 'n_nums': 50, 'feat_dim': 1024, 'head_num': 1, 'hid_dim': 128, 'out_dim': 300, 'lr': 0.0001, 'dropout': 0.5, 'train_bs': 64, 'max_seqlen': 200, 'max_epoch': 100, 'workers': 8, 'save_dir': './ckpt/', 'logs_dir': './log_info.log'}
[2023-09-09 17:09:06,096][main.py][line:165][INFO] total params:30.6445M
[2023-09-09 17:09:06,096][main.py][line:168][INFO] Training Mode
[2023-09-09 17:09:06,097][main.py][line:78][INFO] Model:XModel(
  (self_attention): XEncoder(
    (self_attn): TCA(
      (q): Linear(in_features=1024, out_features=128, bias=True)
      (k): Linear(in_features=1024, out_features=128, bias=True)
      (v): Linear(in_features=1024, out_features=128, bias=True)
      (o): Linear(in_features=128, out_features=1024, bias=True)
      (act): Softmax(dim=-1)
    )
    (linear1): Conv1d(1024, 512, kernel_size=(1,), stride=(1,))
    (linear2): Conv1d(512, 300, kernel_size=(1,), stride=(1,))
    (dropout1): Dropout(p=0.5, inplace=False)
    (dropout2): Dropout(p=0.5, inplace=False)
    (norm): LayerNorm((1024,), eps=1e-05, elementwise_affine=True)
    (loc_adj): DistanceAdj()
    (DR_DMU): WSAD(
      (embedding): Temporal(
        (conv_1): Sequential(
          (0): Conv1d(1024, 512, kernel_size=(3,), stride=(1,), padding=(1,))
          (1): ReLU()
        )
      )
      (triplet): TripletMarginLoss()
      (Amemory): Memory_Unit(
        (sig): Sigmoid()
      )
      (Nmemory): Memory_Unit(
        (sig): Sigmoid()
      )
      (selfatt): Transformer(
        (layers): ModuleList(
          (0-1): 2 x ModuleList(
            (0): PreNorm(
              (norm): LayerNorm((512,), eps=1e-05, elementwise_affine=True)
              (fn): Attention(
                (attend): Softmax(dim=-1)
                (to_qkv): Linear(in_features=512, out_features=2048, bias=False)
                (to_out): Sequential(
                  (0): Linear(in_features=1024, out_features=512, bias=True)
                  (1): Dropout(p=0.5, inplace=False)
                )
              )
            )
            (1): PreNorm(
              (norm): LayerNorm((512,), eps=1e-05, elementwise_affine=True)
              (fn): FeedForward(
                (net): Sequential(
                  (0): Linear(in_features=512, out_features=512, bias=True)
                  (1): GELU(approximate='none')
                  (2): Dropout(p=0.5, inplace=False)
                  (3): Linear(in_features=512, out_features=512, bias=True)
                  (4): Dropout(p=0.5, inplace=False)
                )
              )
            )
          )
        )
      )
      (encoder_mu): Sequential(
        (0): Linear(in_features=512, out_features=512, bias=True)
      )
      (encoder_var): Sequential(
        (0): Linear(in_features=512, out_features=512, bias=True)
      )
      (relu): ReLU()
      (embedding2): Temporal(
        (conv_1): Sequential(
          (0): Conv1d(2048, 1024, kernel_size=(3,), stride=(1,), padding=(1,))
          (1): ReLU()
        )
      )
      (selfatt2): Transformer(
        (layers): ModuleList(
          (0-1): 2 x ModuleList(
            (0): PreNorm(
              (norm): LayerNorm((1024,), eps=1e-05, elementwise_affine=True)
              (fn): Attention(
                (attend): Softmax(dim=-1)
                (to_qkv): Linear(in_features=1024, out_features=4096, bias=False)
                (to_out): Sequential(
                  (0): Linear(in_features=2048, out_features=1024, bias=True)
                  (1): Dropout(p=0.5, inplace=False)
                )
              )
            )
            (1): PreNorm(
              (norm): LayerNorm((1024,), eps=1e-05, elementwise_affine=True)
              (fn): FeedForward(
                (net): Sequential(
                  (0): Linear(in_features=1024, out_features=1024, bias=True)
                  (1): GELU(approximate='none')
                  (2): Dropout(p=0.5, inplace=False)
                  (3): Linear(in_features=1024, out_features=1024, bias=True)
                  (4): Dropout(p=0.5, inplace=False)
                )
              )
            )
          )
        )
      )
    )
  )
  (classifier): Conv1d(300, 1, kernel_size=(9,), stride=(1,))
  (dropout): Dropout(p=0.5, inplace=False)
)

[2023-09-09 17:09:06,097][main.py][line:79][INFO] Optimizer:Adam (
Parameter Group 0
    amsgrad: False
    betas: (0.9, 0.999)
    capturable: False
    differentiable: False
    eps: 1e-08
    foreach: None
    fused: None
    initial_lr: 0.0001
    lr: 0.0001
    maximize: False
    weight_decay: 5e-05
)

[2023-09-09 17:09:17,336][main.py][line:82][INFO] Random initialize AUCAUC:0.5208 Anomaly AUC:0.48912
…
': 2023, 'test_bs': 10, 'smooth': 'slide', 'kappa': 7, 'ckpt_path': './ckpt/ucf__current.pkl', 'a_nums': 50, 'n_nums': 50, 'feat_dim': 1024, 'head_num': 1, 'hid_dim': 128, 'out_dim': 300, 'lr': 0.0001, 'dropout': 0.5, 'train_bs': 64, 'max_seqlen': 200, 'max_epoch': 100, 'workers': 8, 'save_dir': './ckpt/', 'logs_dir': './log_info.log'}
[2023-09-09 17:15:16,914][main.py][line:165][INFO] total params:18.0606M
[2023-09-09 17:15:16,915][main.py][line:168][INFO] Training Mode
[2023-09-09 17:15:16,916][main.py][line:78][INFO] Model:XModel(
  (self_attention): XEncoder(
    (self_attn): TCA(
      (q): Linear(in_features=1024, out_features=128, bias=True)
      (k): Linear(in_features=1024, out_features=128, bias=True)
      (v): Linear(in_features=1024, out_features=128, bias=True)
      (o): Linear(in_features=128, out_features=1024, bias=True)
      (act): Softmax(dim=-1)
    )
    (linear1): Conv1d(1024, 512, kernel_size=(1,), stride=(1,))
    (linear2): Conv1d(512, 300, kernel_size=(1,), stride=(1,))
    (dropout1): Dropout(p=0.5, inplace=False)
    (dropout2): Dropout(p=0.5, inplace=False)
    (norm): LayerNorm((1024,), eps=1e-05, elementwise_affine=True)
    (loc_adj): DistanceAdj()
    (DR_DMU): WSAD(
      (embedding): Temporal(
        (conv_1): Sequential(
          (0): Conv1d(1024, 512, kernel_size=(3,), stride=(1,), padding=(1,))
          (1): ReLU()
        )
      )
      (triplet): TripletMarginLoss()
      (Amemory): Memory_Unit(
        (sig): Sigmoid()
      )
      (Nmemory): Memory_Unit(
        (sig): Sigmoid()
      )
      (selfatt): Transformer(
        (layers): ModuleList(
          (0-1): 2 x ModuleList(
            (0): PreNorm(
              (norm): LayerNorm((512,), eps=1e-05, elementwise_affine=True)
              (fn): Attention(
                (attend): Softmax(dim=-1)
                (to_qkv): Linear(in_features=512, out_features=2048, bias=False)
                (to_out): Sequential(
                  (0): Linear(in_features=1024, out_features=512, bias=True)
                  (1): Dropout(p=0.5, inplace=False)
                )
              )
            )
            (1): PreNorm(
              (norm): LayerNorm((512,), eps=1e-05, elementwise_affine=True)
              (fn): FeedForward(
                (net): Sequential(
                  (0): Linear(in_features=512, out_features=512, bias=True)
                  (1): GELU(approximate='none')
                  (2): Dropout(p=0.5, inplace=False)
                  (3): Linear(in_features=512, out_features=512, bias=True)
                  (4): Dropout(p=0.5, inplace=False)
                )
              )
            )
          )
        )
      )
      (encoder_mu): Sequential(
        (0): Linear(in_features=512, out_features=512, bias=True)
      )
      (encoder_var): Sequential(
        (0): Linear(in_features=512, out_features=512, bias=True)
      )
      (relu): ReLU()
      (selfatt2): Transformer(
        (layers): ModuleList(
          (0-1): 2 x ModuleList(
            (0): PreNorm(
              (norm): LayerNorm((1024,), eps=1e-05, elementwise_affine=True)
              (fn): Attention(
                (attend): Softmax(dim=-1)
                (to_qkv): Linear(in_features=1024, out_features=2048, bias=False)
                (to_out): Sequential(
                  (0): Linear(in_features=1024, out_features=1024, bias=True)
                  (1): Dropout(p=0.5, inplace=False)
                )
              )
            )
            (1): PreNorm(
              (norm): LayerNorm((1024,), eps=1e-05, elementwise_affine=True)
              (fn): FeedForward(
                (net): Sequential(
                  (0): Linear(in_features=1024, out_features=1024, bias=True)
                  (1): GELU(approximate='none')
                  (2): Dropout(p=0.5, inplace=False)
                  (3): Linear(in_features=1024, out_features=1024, bias=True)
                  (4): Dropout(p=0.5, inplace=False)
                )
              )
            )
          )
        )
      )
    )
  )
  (classifier): Conv1d(300, 1, kernel_size=(9,), stride=(1,))
  (dropout): Dropout(p=0.5, inplace=False)
)

[2023-09-09 17:15:16,916][main.py][line:79][INFO] Optimizer:Adam (
Parameter Group 0
    amsgrad: False
    betas: (0.9, 0.999)
    capturable: False
    differentiable: False
    eps: 1e-08
    foreach: None
    fused: None
    initial_lr: 0.0001
    lr: 0.0001
    maximize: False
    weight_decay: 5e-05
)

[2023-09-09 17:15:27,140][main.py][line:82][INFO] Random initialize AUCAUC:0.5440 Anomaly AUC:0.52168
…
': 2023, 'test_bs': 10, 'smooth': 'slide', 'kappa': 7, 'ckpt_path': './ckpt/ucf__current.pkl', 'a_nums': 50, 'n_nums': 50, 'feat_dim': 1024, 'head_num': 1, 'hid_dim': 128, 'out_dim': 300, 'lr': 0.0001, 'dropout': 0.1, 'train_bs': 64, 'max_seqlen': 200, 'max_epoch': 100, 'workers': 8, 'save_dir': './ckpt/', 'logs_dir': './log_info.log'}
[2023-09-09 17:39:22,400][main.py][line:165][INFO] total params:20.1516M
[2023-09-09 17:39:22,401][main.py][line:168][INFO] Training Mode
[2023-09-09 17:39:22,401][main.py][line:78][INFO] Model:XModel(
  (self_attention): XEncoder(
    (self_attn): TCA(
      (q): Linear(in_features=1024, out_features=128, bias=True)
      (k): Linear(in_features=1024, out_features=128, bias=True)
      (v): Linear(in_features=1024, out_features=128, bias=True)
      (o): Linear(in_features=128, out_features=1024, bias=True)
      (act): Softmax(dim=-1)
    )
    (linear1): Conv1d(1024, 512, kernel_size=(1,), stride=(1,))
    (linear2): Conv1d(512, 300, kernel_size=(1,), stride=(1,))
    (dropout1): Dropout(p=0.1, inplace=False)
    (dropout2): Dropout(p=0.1, inplace=False)
    (norm): LayerNorm((1024,), eps=1e-05, elementwise_affine=True)
    (loc_adj): DistanceAdj()
    (DR_DMU): WSAD(
      (embedding): Temporal(
        (conv_1): Sequential(
          (0): Conv1d(1024, 512, kernel_size=(3,), stride=(1,), padding=(1,))
          (1): ReLU()
        )
      )
      (triplet): TripletMarginLoss()
      (Amemory): Memory_Unit(
        (sig): Sigmoid()
      )
      (Nmemory): Memory_Unit(
        (sig): Sigmoid()
      )
      (selfatt): Transformer(
        (layers): ModuleList(
          (0-1): 2 x ModuleList(
            (0): PreNorm(
              (norm): LayerNorm((1024,), eps=1e-05, elementwise_affine=True)
              (fn): Attention(
                (attend): Softmax(dim=-1)
                (to_qkv): Linear(in_features=1024, out_features=2048, bias=False)
                (to_out): Sequential(
                  (0): Linear(in_features=1024, out_features=1024, bias=True)
                  (1): Dropout(p=0.1, inplace=False)
                )
              )
            )
            (1): PreNorm(
              (norm): LayerNorm((1024,), eps=1e-05, elementwise_affine=True)
              (fn): FeedForward(
                (net): Sequential(
                  (0): Linear(in_features=1024, out_features=1024, bias=True)
                  (1): GELU(approximate='none')
                  (2): Dropout(p=0.1, inplace=False)
                  (3): Linear(in_features=1024, out_features=1024, bias=True)
                  (4): Dropout(p=0.1, inplace=False)
                )
              )
            )
          )
        )
      )
      (encoder_mu): Sequential(
        (0): Linear(in_features=512, out_features=512, bias=True)
      )
      (encoder_var): Sequential(
        (0): Linear(in_features=512, out_features=512, bias=True)
      )
      (relu): ReLU()
      (embedding2): Temporal(
        (conv_1): Sequential(
          (0): Conv1d(2048, 1024, kernel_size=(3,), stride=(1,), padding=(1,))
          (1): ReLU()
        )
      )
    )
  )
  (classifier): Conv1d(300, 1, kernel_size=(9,), stride=(1,))
  (dropout): Dropout(p=0.1, inplace=False)
)

[2023-09-09 17:39:22,401][main.py][line:79][INFO] Optimizer:Adam (
Parameter Group 0
    amsgrad: False
    betas: (0.9, 0.999)
    capturable: False
    differentiable: False
    eps: 1e-08
    foreach: None
    fused: None
    initial_lr: 0.0001
    lr: 0.0001
    maximize: False
    weight_decay: 5e-05
)

[2023
…
d': 2023, 'test_bs': 10, 'smooth': 'slide', 'kappa': 7, 'ckpt_path': './ckpt/ucf__current.pkl', 'a_nums': 50, 'n_nums': 50, 'feat_dim': 1024, 'head_num': 1, 'hid_dim': 128, 'out_dim': 300, 'lr': 0.0001, 'dropout': 0.1, 'train_bs': 64, 'max_seqlen': 200, 'max_epoch': 100, 'workers': 8, 'save_dir': './ckpt/', 'logs_dir': './log_info.log'}
[2023-09-09 17:49:58,575][main.py][line:165][INFO] total params:9.1334M
[2023-09-09 17:49:58,575][main.py][line:168][INFO] Training Mode
[2023-09-09 17:49:58,576][main.py][line:78][INFO] Model:XModel(
  (self_attention): XEncoder(
    (self_attn): TCA(
      (q): Linear(in_features=1024, out_features=128, bias=True)
      (k): Linear(in_features=1024, out_features=128, bias=True)
      (v): Linear(in_features=1024, out_features=128, bias=True)
      (o): Linear(in_features=128, out_features=1024, bias=True)
      (act): Softmax(dim=-1)
    )
    (linear1): Conv1d(1024, 512, kernel_size=(1,), stride=(1,))
    (linear2): Conv1d(512, 300, kernel_size=(1,), stride=(1,))
    (dropout1): Dropout(p=0.1, inplace=False)
    (dropout2): Dropout(p=0.1, inplace=False)
    (norm): LayerNorm((1024,), eps=1e-05, elementwise_affine=True)
    (loc_adj): DistanceAdj()
    (DR_DMU): WSAD(
      (embedding): Temporal(
        (conv_1): Sequential(
          (0): Conv1d(2048, 512, kernel_size=(3,), stride=(1,), padding=(1,))
          (1): ReLU()
        )
      )
      (triplet): TripletMarginLoss()
      (Amemory): Memory_Unit(
        (sig): Sigmoid()
      )
      (Nmemory): Memory_Unit(
        (sig): Sigmoid()
      )
      (selfatt): Transformer(
        (layers): ModuleList(
          (0-1): 2 x ModuleList(
            (0): PreNorm(
              (norm): LayerNorm((512,), eps=1e-05, elementwise_affine=True)
              (fn): Attention(
                (attend): Softmax(dim=-1)
                (to_qkv): Linear(in_features=512, out_features=2048, bias=False)
                (to_out): Sequential(
                  (0): Linear(in_features=1024, out_features=512, bias=True)
                  (1): Dropout(p=0.1, inplace=False)
                )
              )
            )
            (1): PreNorm(
              (norm): LayerNorm((512,), eps=1e-05, elementwise_affine=True)
              (fn): FeedForward(
                (net): Sequential(
                  (0): Linear(in_features=512, out_features=512, bias=True)
                  (1): GELU(approximate='none')
                  (2): Dropout(p=0.1, inplace=False)
                  (3): Linear(in_features=512, out_features=512, bias=True)
                  (4): Dropout(p=0.1, inplace=False)
                )
              )
            )
          )
        )
      )
      (encoder_mu): Sequential(
        (0): Linear(in_features=512, out_features=512, bias=True)
      )
      (encoder_var): Sequential(
        (0): Linear(in_features=512, out_features=512, bias=True)
      )
      (relu): ReLU()
    )
  )
  (classifier): Conv1d(300, 1, kernel_size=(9,), stride=(1,))
  (dropout): Dropout(p=0.1, inplace=False)
)

[2023-09-09 17:49:58,576][main.py][line:79][INFO] Optimizer:Adam (
Parameter Group 0
    amsgrad: False
    betas: (0.9, 0.999)
    capturable: False
    differentiable: False
    eps: 1e-08
    foreach: None
    fused: None
    initial_lr: 0.0001
    lr: 0.0001
    maximize: False
    weight_decay: 5e-05
)

[2023
…
d': 2023, 'test_bs': 10, 'smooth': 'slide', 'kappa': 7, 'ckpt_path': './ckpt/ucf__current.pkl', 'a_nums': 30, 'n_nums': 30, 'feat_dim': 1024, 'head_num': 1, 'hid_dim': 128, 'out_dim': 300, 'lr': 0.0001, 'dropout': 0.5, 'train_bs': 64, 'max_seqlen': 200, 'max_epoch': 100, 'workers': 8, 'save_dir': './ckpt/', 'logs_dir': './log_info.log'}
[2023-09-17 13:10:17,893][main.py][line:165][INFO] total params:6.4915M
[2023-09-17 13:10:17,893][main.py][line:168][INFO] Training Mode
[2023-09-17 13:10:17,893][main.py][line:78][INFO] Model:XModel(
  (self_attention): XEncoder(
    (self_attn): TCA(
      (q): Linear(in_features=1024, out_features=128, bias=True)
      (k): Linear(in_features=1024, out_features=128, bias=True)
      (v): Linear(in_features=1024, out_features=128, bias=True)
      (o): Linear(in_features=128, out_features=1024, bias=True)
      (act): Softmax(dim=-1)
    )
    (linear1): Conv1d(1024, 512, kernel_size=(1,), stride=(1,))
    (linear2): Conv1d(512, 300, kernel_size=(1,), stride=(1,))
    (dropout1): Dropout(p=0.5, inplace=False)
    (dropout2): Dropout(p=0.5, inplace=False)
    (norm): LayerNorm((1024,), eps=1e-05, elementwise_affine=True)
    (loc_adj): DistanceAdj()
    (DR_DMU): WSAD(
      (triplet): TripletMarginLoss()
      (Amemory): Memory_Unit(
        (sig): Sigmoid()
      )
      (Nmemory): Memory_Unit(
        (sig): Sigmoid()
      )
      (selfatt): Transformer(
        (layers): ModuleList(
          (0-1): 2 x ModuleList(
            (0): PreNorm(
              (norm): LayerNorm((512,), eps=1e-05, elementwise_affine=True)
              (fn): Attention(
                (attend): Softmax(dim=-1)
                (to_qkv): Linear(in_features=512, out_features=2048, bias=False)
                (to_out): Sequential(
                  (0): Linear(in_features=1024, out_features=512, bias=True)
                  (1): Dropout(p=0.1, inplace=False)
                )
              )
            )
            (1): PreNorm(
              (norm): LayerNorm((512,), eps=1e-05, elementwise_affine=True)
              (fn): FeedForward(
                (net): Sequential(
                  (0): Linear(in_features=512, out_features=512, bias=True)
                  (1): GELU(approximate='none')
                  (2): Dropout(p=0.1, inplace=False)
                  (3): Linear(in_features=512, out_features=512, bias=True)
                  (4): Dropout(p=0.1, inplace=False)
                )
              )
            )
          )
        )
      )
      (encoder_mu): Sequential(
        (0): Linear(in_features=512, out_features=512, bias=True)
      )
      (encoder_var): Sequential(
        (0): Linear(in_features=512, out_features=512, bias=True)
      )
      (relu): ReLU()
    )
    (linear3): Conv1d(1024, 512, kernel_size=(1,), stride=(1,))
    (dropout3): Dropout(p=0.5, inplace=False)
  )
  (classifier): Conv1d(300, 1, kernel_size=(9,), stride=(1,))
  (dropout): Dropout(p=0.5, inplace=False)
)

[2023-09-17 13:10:17,894][main.py][line:79][INFO] Optimizer:AdamW (
Parameter Group 0
    amsgrad: False
    betas: (0.9, 0.999)
    capturable: False
    differentiable: False
    eps: 1e-08
    foreach: None
    fused: None
    initial_lr: 0.0001
    lr: 0.0001
    maximize: False
    weight_decay: 0.01
)

[2023
…
d': 2023, 'test_bs': 10, 'smooth': 'slide', 'kappa': 7, 'ckpt_path': './ckpt/ucf__current.pkl', 'a_nums': 30, 'n_nums': 30, 'feat_dim': 1024, 'head_num': 1, 'hid_dim': 128, 'out_dim': 300, 'lr': 0.0003, 'dropout': 0.5, 'train_bs': 64, 'max_seqlen': 200, 'max_epoch': 100, 'workers': 8, 'save_dir': './ckpt/', 'logs_dir': './log_info.log'}
[2023-09-17 14:48:35,592][main.py][line:165][INFO] total params:6.4935M
[2023-09-17 14:48:35,592][main.py][line:168][INFO] Training Mode
[2023-09-17 14:48:35,592][main.py][line:78][INFO] Model:XModel(
  (self_attention): XEncoder(
    (self_attn): TCA(
      (q): Linear(in_features=1024, out_features=128, bias=True)
      (k): Linear(in_features=1024, out_features=128, bias=True)
      (v): Linear(in_features=1024, out_features=128, bias=True)
      (o): Linear(in_features=128, out_features=1024, bias=True)
      (act): Softmax(dim=-1)
    )
    (linear1): Conv1d(1024, 512, kernel_size=(1,), stride=(1,))
    (linear2): Conv1d(512, 300, kernel_size=(1,), stride=(1,))
    (dropout1): Dropout(p=0.5, inplace=False)
    (dropout2): Dropout(p=0.5, inplace=False)
    (norm): LayerNorm((1024,), eps=1e-05, elementwise_affine=True)
    (loc_adj): DistanceAdj()
    (DR_DMU): WSAD(
      (triplet): TripletMarginLoss()
      (Amemory): Memory_Unit(
        (sig): Sigmoid()
      )
      (Nmemory): Memory_Unit(
        (sig): Sigmoid()
      )
      (selfatt): Transformer(
        (layers): ModuleList(
          (0-1): 2 x ModuleList(
            (0): PreNorm(
              (norm): LayerNorm((512,), eps=1e-05, elementwise_affine=True)
              (fn): Attention(
                (attend): Softmax(dim=-1)
                (to_qkv): Linear(in_features=512, out_features=2048, bias=False)
                (to_out): Sequential(
                  (0): Linear(in_features=1024, out_features=512, bias=True)
                  (1): Dropout(p=0.5, inplace=False)
                )
              )
            )
            (1): PreNorm(
              (norm): LayerNorm((512,), eps=1e-05, elementwise_affine=True)
              (fn): FeedForward(
                (net): Sequential(
                  (0): Linear(in_features=512, out_features=512, bias=True)
                  (1): GELU(approximate='none')
                  (2): Dropout(p=0.5, inplace=False)
                  (3): Linear(in_features=512, out_features=512, bias=True)
                  (4): Dropout(p=0.5, inplace=False)
                )
              )
            )
          )
        )
      )
      (encoder_mu): Sequential(
        (0): Linear(in_features=512, out_features=512, bias=True)
      )
      (encoder_var): Sequential(
        (0): Linear(in_features=512, out_features=512, bias=True)
      )
      (relu): ReLU()
      (batch_norm): BatchNorm1d(1024, eps=1e-05, momentum=0.1, affine=True, track_running_stats=True)
    )
    (linear3): Conv1d(1024, 512, kernel_size=(1,), stride=(1,))
    (dropout3): Dropout(p=0.5, inplace=False)
  )
  (classifier): Conv1d(300, 1, kernel_size=(9,), stride=(1,))
  (dropout): Dropout(p=0.5, inplace=False)
)

[2023-09-17 14:48:35,593][main.py][line:79][INFO] Optimizer:AdamW (
Parameter Group 0
    amsgrad: False
    betas: (0.9, 0.999)
    capturable: False
    differentiable: False
    eps: 1e-08
    foreach: None
    fused: None
    initial_lr: 0.0003
    lr: 0.0003
    maximize: False
    weight_decay: 0.01
)

[2023
…
d': 2023, 'test_bs': 10, 'smooth': 'slide', 'kappa': 7, 'ckpt_path': './ckpt/ucf__current.pkl', 'a_nums': 30, 'n_nums': 30, 'feat_dim': 1024, 'head_num': 1, 'hid_dim': 128, 'out_dim': 300, 'lr': 0.0003, 'dropout': 0.5, 'train_bs': 64, 'max_seqlen': 200, 'max_epoch': 100, 'workers': 8, 'save_dir': './ckpt/', 'logs_dir': './log_info.log'}
[2023-09-17 14:50:50,917][main.py][line:165][INFO] total params:6.4925M
[2023-09-17 14:50:50,918][main.py][line:168][INFO] Training Mode
[2023-09-17 14:50:50,918][main.py][line:78][INFO] Model:XModel(
  (self_attention): XEncoder(
    (self_attn): TCA(
      (q): Linear(in_features=1024, out_features=128, bias=True)
      (k): Linear(in_features=1024, out_features=128, bias=True)
      (v): Linear(in_features=1024, out_features=128, bias=True)
      (o): Linear(in_features=128, out_features=1024, bias=True)
      (act): Softmax(dim=-1)
    )
    (linear1): Conv1d(1024, 512, kernel_size=(1,), stride=(1,))
    (linear2): Conv1d(512, 300, kernel_size=(1,), stride=(1,))
    (dropout1): Dropout(p=0.5, inplace=False)
    (dropout2): Dropout(p=0.5, inplace=False)
    (norm): LayerNorm((1024,), eps=1e-05, elementwise_affine=True)
    (loc_adj): DistanceAdj()
    (DR_DMU): WSAD(
      (triplet): TripletMarginLoss()
      (Amemory): Memory_Unit(
        (sig): Sigmoid()
      )
      (Nmemory): Memory_Unit(
        (sig): Sigmoid()
      )
      (selfatt): Transformer(
        (layers): ModuleList(
          (0-1): 2 x ModuleList(
            (0): PreNorm(
              (norm): LayerNorm((512,), eps=1e-05, elementwise_affine=True)
              (fn): Attention(
                (attend): Softmax(dim=-1)
                (to_qkv): Linear(in_features=512, out_features=2048, bias=False)
                (to_out): Sequential(
                  (0): Linear(in_features=1024, out_features=512, bias=True)
                  (1): Dropout(p=0.5, inplace=False)
                )
              )
            )
            (1): PreNorm(
              (norm): LayerNorm((512,), eps=1e-05, elementwise_affine=True)
              (fn): FeedForward(
                (net): Sequential(
                  (0): Linear(in_features=512, out_features=512, bias=True)
                  (1): GELU(approximate='none')
                  (2): Dropout(p=0.5, inplace=False)
                  (3): Linear(in_features=512, out_features=512, bias=True)
                  (4): Dropout(p=0.5, inplace=False)
                )
              )
            )
          )
        )
      )
      (encoder_mu): Sequential(
        (0): Linear(in_features=512, out_features=512, bias=True)
      )
      (encoder_var): Sequential(
        (0): Linear(in_features=512, out_features=512, bias=True)
      )
      (relu): ReLU()
      (batch_norm): BatchNorm1d(512, eps=1e-05, momentum=0.1, affine=True, track_running_stats=True)
    )
    (linear3): Conv1d(1024, 512, kernel_size=(1,), stride=(1,))
    (dropout3): Dropout(p=0.5, inplace=False)
  )
  (classifier): Conv1d(300, 1, kernel_size=(9,), stride=(1,))
  (dropout): Dropout(p=0.5, inplace=False)
)

[2023-09-17 14:50:50,918][main.py][line:79][INFO] Optimizer:AdamW (
Parameter Group 0
    amsgrad: False
    betas: (0.9, 0.999)
    capturable: False
    differentiable: False
    eps: 1e-08
    foreach: None
    fused: None
    initial_lr: 0.0003
    lr: 0.0003
    maximize: False
    weight_decay: 0.01
)

[2023
…
d': 2023, 'test_bs': 10, 'smooth': 'slide', 'kappa': 7, 'ckpt_path': './ckpt/ucf__current.pkl', 'a_nums': 60, 'n_nums': 60, 'feat_dim': 1024, 'head_num': 1, 'hid_dim': 128, 'out_dim': 300, 'lr': 0.0005, 'dropout': 0.5, 'train_bs': 64, 'max_seqlen': 200, 'max_epoch': 100, 'workers': 8, 'save_dir': './ckpt/', 'logs_dir': './log_info.log'}
[2023-09-17 16:20:53,295][main.py][line:165][INFO] total params:2.3207M
[2023-09-17 16:20:53,295][main.py][line:168][INFO] Training Mode
[2023-09-17 16:20:53,295][main.py][line:78][INFO] Model:XModel(
  (self_attention): XEncoder(
    (self_attn): TCA(
      (q): Linear(in_features=1024, out_features=128, bias=True)
      (k): Linear(in_features=1024, out_features=128, bias=True)
      (v): Linear(in_features=1024, out_features=128, bias=True)
      (o): Linear(in_features=128, out_features=1024, bias=True)
      (act): Softmax(dim=-1)
    )
    (linear1): Conv1d(1024, 512, kernel_size=(1,), stride=(1,))
    (linear2): Conv1d(512, 300, kernel_size=(1,), stride=(1,))
    (dropout1): Dropout(p=0.5, inplace=False)
    (dropout2): Dropout(p=0.5, inplace=False)
    (norm): LayerNorm((1024,), eps=1e-05, elementwise_affine=True)
    (loc_adj): DistanceAdj()
    (DR_DMU): WSAD(
      (triplet): TripletMarginLoss()
      (Amemory): Memory_Unit(
        (sig): Sigmoid()
      )
      (Nmemory): Memory_Unit(
        (sig): Sigmoid()
      )
      (encoder_mu): Sequential(
        (0): Linear(in_features=512, out_features=512, bias=True)
      )
      (encoder_var): Sequential(
        (0): Linear(in_features=512, out_features=512, bias=True)
      )
      (relu): ReLU()
    )
    (linear3): Conv1d(1024, 512, kernel_size=(1,), stride=(1,))
    (dropout3): Dropout(p=0.5, inplace=False)
  )
  (classifier): Conv1d(300, 1, kernel_size=(9,), stride=(1,))
  (dropout): Dropout(p=0.5, inplace=False)
)

[2023-09-17 16:20:53,295][main.py][line:79][INFO] Optimizer:AdamW (
Parameter Group 0
    amsgrad: False
    betas: (0.9, 0.999)
    capturable: False
    differentiable: False
    eps: 1e-08
    foreach: None
    fused: None
    initial_lr: 0.0005
    lr: 0.0005
    maximize: False
    weight_decay: 5e-05
)

[2023-09-17 16:20:58,651][main.py][line:82][INFO] Random initialize AUCAUC:0.5431 Anomaly AUC:0.51041
…
d': 2023, 'test_bs': 10, 'smooth': 'slide', 'kappa': 7, 'ckpt_path': './ckpt/ucf__current.pkl', 'a_nums': 30, 'n_nums': 30, 'feat_dim': 1024, 'head_num': 1, 'hid_dim': 128, 'out_dim': 300, 'lr': 0.0005, 'dropout': 0.5, 'train_bs': 64, 'max_seqlen': 200, 'max_epoch': 100, 'workers': 8, 'save_dir': './ckpt/', 'logs_dir': './log_info.log'}
[2023-09-17 16:25:44,468][main.py][line:165][INFO] total params:7.2784M
[2023-09-17 16:25:44,468][main.py][line:168][INFO] Training Mode
[2023-09-17 16:25:44,469][main.py][line:78][INFO] Model:XModel(
  (self_attention): XEncoder(
    (self_attn): TCA(
      (q): Linear(in_features=1024, out_features=128, bias=True)
      (k): Linear(in_features=1024, out_features=128, bias=True)
      (v): Linear(in_features=1024, out_features=128, bias=True)
      (o): Linear(in_features=128, out_features=1024, bias=True)
      (act): Softmax(dim=-1)
    )
    (linear1): Conv1d(1024, 512, kernel_size=(1,), stride=(1,))
    (linear2): Conv1d(512, 300, kernel_size=(1,), stride=(1,))
    (dropout1): Dropout(p=0.5, inplace=False)
    (dropout2): Dropout(p=0.5, inplace=False)
    (norm): LayerNorm((1024,), eps=1e-05, elementwise_affine=True)
    (loc_adj): DistanceAdj()
    (DR_DMU): WSAD(
      (embedding): Temporal(
        (conv_1): Sequential(
          (0): Conv1d(512, 512, kernel_size=(3,), stride=(1,), padding=(1,))
          (1): ReLU()
        )
      )
      (triplet): TripletMarginLoss()
      (Amemory): Memory_Unit(
        (sig): Sigmoid()
      )
      (Nmemory): Memory_Unit(
        (sig): Sigmoid()
      )
      (selfatt): Transformer(
        (layers): ModuleList(
          (0-1): 2 x ModuleList(
            (0): PreNorm(
              (norm): LayerNorm((512,), eps=1e-05, elementwise_affine=True)
              (fn): Attention(
                (attend): Softmax(dim=-1)
                (to_qkv): Linear(in_features=512, out_features=2048, bias=False)
                (to_out): Sequential(
                  (0): Linear(in_features=1024, out_features=512, bias=True)
                  (1): Dropout(p=0.5, inplace=False)
                )
              )
            )
            (1): PreNorm(
              (norm): LayerNorm((512,), eps=1e-05, elementwise_affine=True)
              (fn): FeedForward(
                (net): Sequential(
                  (0): Linear(in_features=512, out_features=512, bias=True)
                  (1): GELU(approximate='none')
                  (2): Dropout(p=0.5, inplace=False)
                  (3): Linear(in_features=512, out_features=512, bias=True)
                  (4): Dropout(p=0.5, inplace=False)
                )
              )
            )
          )
        )
      )
      (encoder_mu): Sequential(
        (0): Linear(in_features=512, out_features=512, bias=True)
      )
      (encoder_var): Sequential(
        (0): Linear(in_features=512, out_features=512, bias=True)
      )
      (relu): ReLU()
    )
    (linear3): Conv1d(1024, 512, kernel_size=(1,), stride=(1,))
    (dropout3): Dropout(p=0.5, inplace=False)
  )
  (classifier): Conv1d(300, 1, kernel_size=(9,), stride=(1,))
  (dropout): Dropout(p=0.5, inplace=False)
)

[2023-09-17 16:25:44,469][main.py][line:79][INFO] Optimizer:AdamW (
Parameter Group 0
    amsgrad: False
    betas: (0.9, 0.999)
    capturable: False
    differentiable: False
    eps: 1e-08
    foreach: None
    fused: None
    initial_lr: 0.0005
    lr: 0.0005
    maximize: False
    weight_decay: 5e-05
)

[2023-09-17 16:25:52,579][main.py][line:82][INFO] Random initialize AUCAUC:0.5315 Anomaly AUC:0.49661
…
d': 2023, 'test_bs': 10, 'smooth': 'slide', 'kappa': 7, 'ckpt_path': './ckpt/ucf__current.pkl', 'a_nums': 30, 'n_nums': 30, 'feat_dim': 1024, 'head_num': 1, 'hid_dim': 128, 'out_dim': 300, 'lr': 0.0005, 'dropout': 0.5, 'train_bs': 64, 'max_seqlen': 200, 'max_epoch': 100, 'workers': 8, 'save_dir': './ckpt/', 'logs_dir': './log_info.log'}
[2023-09-17 16:50:12,708][main.py][line:165][INFO] total params:7.2784M
[2023-09-17 16:50:12,708][main.py][line:168][INFO] Training Mode
[2023-09-17 16:50:12,709][main.py][line:78][INFO] Model:XModel(
  (self_attention): XEncoder(
    (self_attn): TCA(
      (q): Linear(in_features=1024, out_features=128, bias=True)
      (k): Linear(in_features=1024, out_features=128, bias=True)
      (v): Linear(in_features=1024, out_features=128, bias=True)
      (o): Linear(in_features=128, out_features=1024, bias=True)
      (act): Softmax(dim=-1)
    )
    (linear1): Conv1d(1024, 512, kernel_size=(1,), stride=(1,))
    (linear2): Conv1d(512, 300, kernel_size=(1,), stride=(1,))
    (dropout1): Dropout(p=0.5, inplace=False)
    (dropout2): Dropout(p=0.5, inplace=False)
    (norm): LayerNorm((1024,), eps=1e-05, elementwise_affine=True)
    (loc_adj): DistanceAdj()
    (DR_DMU): WSAD(
      (embedding): Temporal(
        (conv_1): Sequential(
          (0): Conv1d(512, 512, kernel_size=(3,), stride=(1,), padding=(1,))
          (1): ReLU()
        )
      )
      (triplet): TripletMarginLoss()
      (Amemory): Memory_Unit(
        (sig): Sigmoid()
      )
      (Nmemory): Memory_Unit(
        (sig): Sigmoid()
      )
      (selfatt): Transformer(
        (layers): ModuleList(
          (0-1): 2 x ModuleList(
            (0): PreNorm(
              (norm): LayerNorm((512,), eps=1e-05, elementwise_affine=True)
              (fn): Attention(
                (attend): Softmax(dim=-1)
                (to_qkv): Linear(in_features=512, out_features=2048, bias=False)
                (to_out): Sequential(
                  (0): Linear(in_features=1024, out_features=512, bias=True)
                  (1): Dropout(p=0.5, inplace=False)
                )
              )
            )
            (1): PreNorm(
              (norm): LayerNorm((512,), eps=1e-05, elementwise_affine=True)
              (fn): FeedForward(
                (net): Sequential(
                  (0): Linear(in_features=512, out_features=512, bias=True)
                  (1): GELU(approximate='none')
                  (2): Dropout(p=0.5, inplace=False)
                  (3): Linear(in_features=512, out_features=512, bias=True)
                  (4): Dropout(p=0.5, inplace=False)
                )
              )
            )
          )
        )
      )
      (encoder_mu): Sequential(
        (0): Linear(in_features=512, out_features=512, bias=True)
      )
      (encoder_var): Sequential(
        (0): Linear(in_features=512, out_features=512, bias=True)
      )
      (relu): ReLU()
    )
    (linear3): Linear(in_features=1024, out_features=512, bias=True)
  )
  (classifier): Conv1d(300, 1, kernel_size=(9,), stride=(1,))
  (dropout): Dropout(p=0.5, inplace=False)
)

[2023-09-17 16:50:12,709][main.py][line:79][INFO] Optimizer:AdamW (
Parameter Group 0
    amsgrad: False
    betas: (0.9, 0.999)
    capturable: False
    differentiable: False
    eps: 1e-08
    foreach: None
    fused: None
    initial_lr: 0.0005
    lr: 0.0005
    maximize: False
    weight_decay: 5e-05
)

[202
…
d': 2023, 'test_bs': 10, 'smooth': 'slide', 'kappa': 7, 'ckpt_path': './ckpt/ucf__current.pkl', 'a_nums': 30, 'n_nums': 30, 'feat_dim': 1024, 'head_num': 1, 'hid_dim': 128, 'out_dim': 300, 'lr': 0.0005, 'dropout': 0.5, 'train_bs': 64, 'max_seqlen': 200, 'max_epoch': 100, 'workers': 8, 'save_dir': './ckpt/', 'logs_dir': './log_info.log'}
[2023-09-17 16:55:44,747][main.py][line:165][INFO] total params:7.2794M
[2023-09-17 16:55:44,748][main.py][line:168][INFO] Training Mode
[2023-09-17 16:55:44,748][main.py][line:78][INFO] Model:XModel(
  (self_attention): XEncoder(
    (self_attn): TCA(
      (q): Linear(in_features=1024, out_features=128, bias=True)
      (k): Linear(in_features=1024, out_features=128, bias=True)
      (v): Linear(in_features=1024, out_features=128, bias=True)
      (o): Linear(in_features=128, out_features=1024, bias=True)
      (act): Softmax(dim=-1)
    )
    (linear1): Conv1d(1024, 512, kernel_size=(1,), stride=(1,))
    (linear2): Conv1d(512, 300, kernel_size=(1,), stride=(1,))
    (dropout1): Dropout(p=0.5, inplace=False)
    (dropout2): Dropout(p=0.5, inplace=False)
    (norm): LayerNorm((1024,), eps=1e-05, elementwise_affine=True)
    (loc_adj): DistanceAdj()
    (DR_DMU): WSAD(
      (embedding): Temporal(
        (conv_1): Sequential(
          (0): Conv1d(512, 512, kernel_size=(3,), stride=(1,), padding=(1,))
          (1): ReLU()
        )
      )
      (triplet): TripletMarginLoss()
      (Amemory): Memory_Unit(
        (sig): Sigmoid()
      )
      (Nmemory): Memory_Unit(
        (sig): Sigmoid()
      )
      (selfatt): Transformer(
        (layers): ModuleList(
          (0-1): 2 x ModuleList(
            (0): PreNorm(
              (norm): LayerNorm((512,), eps=1e-05, elementwise_affine=True)
              (fn): Attention(
                (attend): Softmax(dim=-1)
                (to_qkv): Linear(in_features=512, out_features=2048, bias=False)
                (to_out): Sequential(
                  (0): Linear(in_features=1024, out_features=512, bias=True)
                  (1): Dropout(p=0.5, inplace=False)
                )
              )
            )
            (1): PreNorm(
              (norm): LayerNorm((512,), eps=1e-05, elementwise_affine=True)
              (fn): FeedForward(
                (net): Sequential(
                  (0): Linear(in_features=512, out_features=512, bias=True)
                  (1): GELU(approximate='none')
                  (2): Dropout(p=0.5, inplace=False)
                  (3): Linear(in_features=512, out_features=512, bias=True)
                  (4): Dropout(p=0.5, inplace=False)
                )
              )
            )
          )
        )
      )
      (encoder_mu): Sequential(
        (0): Linear(in_features=512, out_features=512, bias=True)
      )
      (encoder_var): Sequential(
        (0): Linear(in_features=512, out_features=512, bias=True)
      )
      (relu): ReLU()
    )
    (linear3): Linear(in_features=1024, out_features=512, bias=True)
    (norm2): LayerNorm((512,), eps=1e-05, elementwise_affine=True)
  )
  (classifier): Conv1d(300, 1, kernel_size=(9,), stride=(1,))
  (dropout): Dropout(p=0.5, inplace=False)
)

[2023-09-17 16:55:44,748][main.py][line:79][INFO] Optimizer:AdamW (
Parameter Group 0
    amsgrad: False
    betas: (0.9, 0.999)
    capturable: False
    differentiable: False
    eps: 1e-08
    foreach: None
    fused: None
    initial_lr: 0.0005
    lr: 0.0005
    maximize: False
    weight_decay: 5e-05
)

[2023-09-17 16:55:52,993][main.py][line:82][INFO] Random initialize AUCAUC:0.5451 Anomaly AUC:0.48789
…
d': 2023, 'test_bs': 10, 'smooth': 'slide', 'kappa': 7, 'ckpt_path': './ckpt/ucf__current.pkl', 'a_nums': 30, 'n_nums': 30, 'feat_dim': 1024, 'head_num': 1, 'hid_dim': 128, 'out_dim': 300, 'lr': 0.0005, 'dropout': 0.5, 'train_bs': 64, 'max_seqlen': 200, 'max_epoch': 100, 'workers': 8, 'save_dir': './ckpt/', 'logs_dir': './log_info.log'}
[2023-09-17 17:14:58,234][main.py][line:165][INFO] total params:6.4925M
[2023-09-17 17:14:58,234][main.py][line:168][INFO] Training Mode
[2023-09-17 17:14:58,234][main.py][line:78][INFO] Model:XModel(
  (self_attention): XEncoder(
    (self_attn): TCA(
      (q): Linear(in_features=1024, out_features=128, bias=True)
      (k): Linear(in_features=1024, out_features=128, bias=True)
      (v): Linear(in_features=1024, out_features=128, bias=True)
      (o): Linear(in_features=128, out_features=1024, bias=True)
      (act): Softmax(dim=-1)
    )
    (linear1): Conv1d(1024, 512, kernel_size=(1,), stride=(1,))
    (linear2): Conv1d(512, 300, kernel_size=(1,), stride=(1,))
    (dropout1): Dropout(p=0.5, inplace=False)
    (dropout2): Dropout(p=0.5, inplace=False)
    (norm): LayerNorm((1024,), eps=1e-05, elementwise_affine=True)
    (loc_adj): DistanceAdj()
    (DR_DMU): WSAD(
      (triplet): TripletMarginLoss()
      (Amemory): Memory_Unit(
        (sig): Sigmoid()
      )
      (Nmemory): Memory_Unit(
        (sig): Sigmoid()
      )
      (selfatt): Transformer(
        (layers): ModuleList(
          (0-1): 2 x ModuleList(
            (0): PreNorm(
              (norm): LayerNorm((512,), eps=1e-05, elementwise_affine=True)
              (fn): Attention(
                (attend): Softmax(dim=-1)
                (to_qkv): Linear(in_features=512, out_features=2048, bias=False)
                (to_out): Sequential(
                  (0): Linear(in_features=1024, out_features=512, bias=True)
                  (1): Dropout(p=0.5, inplace=False)
                )
              )
            )
            (1): PreNorm(
              (norm): LayerNorm((512,), eps=1e-05, elementwise_affine=True)
              (fn): FeedForward(
                (net): Sequential(
                  (0): Linear(in_features=512, out_features=512, bias=True)
                  (1): GELU(approximate='none')
                  (2): Dropout(p=0.5, inplace=False)
                  (3): Linear(in_features=512, out_features=512, bias=True)
                  (4): Dropout(p=0.5, inplace=False)
                )
              )
            )
          )
        )
      )
      (encoder_mu): Sequential(
        (0): Linear(in_features=512, out_features=512, bias=True)
      )
      (encoder_var): Sequential(
        (0): Linear(in_features=512, out_features=512, bias=True)
      )
      (relu): ReLU()
    )
    (linear3): Linear(in_features=1024, out_features=512, bias=True)
    (norm2): LayerNorm((512,), eps=1e-05, elementwise_affine=True)
  )
  (classifier): Conv1d(300, 1, kernel_size=(9,), stride=(1,))
  (dropout): Dropout(p=0.5, inplace=False)
)

[2023-09-17 17:14:58,234][main.py][line:79][INFO] Optimizer:AdamW (
Parameter Group 0
    amsgrad: False
    betas: (0.9, 0.999)
    capturable: False
    differentiable: False
    eps: 1e-08
    foreach: None
    fused: None
    initial_lr: 0.0005
    lr: 0.0005
    maximize: False
    weight_decay: 0.01
)

[2023-09-17 17:15:05,995][main.py][line:82][INFO] Random initialize AUCAUC:0.4734 Anomaly AUC:0.50240
…
ed': 2023, 'test_bs': 10, 'smooth': 'slide', 'kappa': 7, 'ckpt_path': './ckpt/ucf__current.pkl', 'a_nums': 60, 'n_nums': 60, 'feat_dim': 1024, 'head_num': 1, 'hid_dim': 128, 'out_dim': 300, 'lr': 0.0001, 'dropout': 0.5, 'train_bs': 64, 'max_seqlen': 200, 'max_epoch': 50, 'workers': 8, 'save_dir': './ckpt/', 'logs_dir': './log_info.log'}
[2023-09-17 18:42:50,202][main.py][line:165][INFO] total params:6.5222M
[2023-09-17 18:42:50,202][main.py][line:168][INFO] Training Mode
[2023-09-17 18:42:50,202][main.py][line:78][INFO] Model:XModel(
  (self_attention): XEncoder(
    (self_attn): TCA(
      (q): Linear(in_features=1024, out_features=128, bias=True)
      (k): Linear(in_features=1024, out_features=128, bias=True)
      (v): Linear(in_features=1024, out_features=128, bias=True)
      (o): Linear(in_features=128, out_features=1024, bias=True)
      (act): Softmax(dim=-1)
    )
    (linear1): Conv1d(1024, 512, kernel_size=(1,), stride=(1,))
    (linear2): Conv1d(512, 300, kernel_size=(1,), stride=(1,))
    (dropout1): Dropout(p=0.5, inplace=False)
    (dropout2): Dropout(p=0.5, inplace=False)
    (norm): LayerNorm((1024,), eps=1e-05, elementwise_affine=True)
    (loc_adj): DistanceAdj()
    (DR_DMU): WSAD(
      (triplet): TripletMarginLoss()
      (Amemory): Memory_Unit(
        (sig): Sigmoid()
      )
      (Nmemory): Memory_Unit(
        (sig): Sigmoid()
      )
      (selfatt): Transformer(
        (layers): ModuleList(
          (0-1): 2 x ModuleList(
            (0): PreNorm(
              (norm): LayerNorm((512,), eps=1e-05, elementwise_affine=True)
              (fn): Attention(
                (attend): Softmax(dim=-1)
                (to_qkv): Linear(in_features=512, out_features=2048, bias=False)
                (to_out): Sequential(
                  (0): Linear(in_features=1024, out_features=512, bias=True)
                  (1): Dropout(p=0.5, inplace=False)
                )
              )
            )
            (1): PreNorm(
              (norm): LayerNorm((512,), eps=1e-05, elementwise_affine=True)
              (fn): FeedForward(
                (net): Sequential(
                  (0): Linear(in_features=512, out_features=512, bias=True)
                  (1): GELU(approximate='none')
                  (2): Dropout(p=0.5, inplace=False)
                  (3): Linear(in_features=512, out_features=512, bias=True)
                  (4): Dropout(p=0.5, inplace=False)
                )
              )
            )
          )
        )
      )
      (encoder_mu): Sequential(
        (0): Linear(in_features=512, out_features=512, bias=True)
      )
      (encoder_var): Sequential(
        (0): Linear(in_features=512, out_features=512, bias=True)
      )
      (relu): ReLU()
    )
    (linear3): Linear(in_features=1024, out_features=512, bias=True)
    (dropout3): Dropout(p=0.5, inplace=False)
  )
  (classifier): Conv1d(300, 1, kernel_size=(9,), stride=(1,))
  (dropout): Dropout(p=0.5, inplace=False)
)

[2023-09-17 18:42:50,202][main.py][line:79][INFO] Optimizer:Adam (
Parameter Group 0
    amsgrad: False
    betas: (0.9, 0.999)
    capturable: False
    differentiable: False
    eps: 1e-08
    foreach: None
    fused: None
    initial_lr: 0.0001
    lr: 0.0001
    maximize: False
    weight_decay: 0.0001
)

[202
…
ed': 2023, 'test_bs': 10, 'smooth': 'slide', 'kappa': 7, 'ckpt_path': './ckpt/ucf__current.pkl', 'a_nums': 60, 'n_nums': 60, 'feat_dim': 1024, 'head_num': 1, 'hid_dim': 128, 'out_dim': 300, 'lr': 0.0001, 'dropout': 0.5, 'train_bs': 64, 'max_seqlen': 200, 'max_epoch': 50, 'workers': 8, 'save_dir': './ckpt/', 'logs_dir': './log_info.log'}
[2023-09-17 21:38:54,009][main.py][line:165][INFO] total params:5.9974M
[2023-09-17 21:38:54,009][main.py][line:168][INFO] Training Mode
[2023-09-17 21:38:54,010][main.py][line:78][INFO] Model:XModel(
  (self_attention): XEncoder(
    (self_attn): TCA(
      (q): Linear(in_features=1024, out_features=128, bias=True)
      (k): Linear(in_features=1024, out_features=128, bias=True)
      (v): Linear(in_features=1024, out_features=128, bias=True)
      (o): Linear(in_features=128, out_features=1024, bias=True)
      (act): Softmax(dim=-1)
    )
    (linear1): Conv1d(1024, 512, kernel_size=(1,), stride=(1,))
    (linear2): Conv1d(512, 300, kernel_size=(1,), stride=(1,))
    (dropout1): Dropout(p=0.5, inplace=False)
    (dropout2): Dropout(p=0.5, inplace=False)
    (norm): LayerNorm((1024,), eps=1e-05, elementwise_affine=True)
    (loc_adj): DistanceAdj()
    (DR_DMU): WSAD(
      (triplet): TripletMarginLoss()
      (Amemory): Memory_Unit(
        (sig): Sigmoid()
      )
      (Nmemory): Memory_Unit(
        (sig): Sigmoid()
      )
      (selfatt): Transformer(
        (layers): ModuleList(
          (0-1): 2 x ModuleList(
            (0): PreNorm(
              (norm): LayerNorm((512,), eps=1e-05, elementwise_affine=True)
              (fn): Attention(
                (attend): Softmax(dim=-1)
                (to_qkv): Linear(in_features=512, out_features=2048, bias=False)
                (to_out): Sequential(
                  (0): Linear(in_features=1024, out_features=512, bias=True)
                  (1): Dropout(p=0.5, inplace=False)
                )
              )
            )
            (1): PreNorm(
              (norm): LayerNorm((512,), eps=1e-05, elementwise_affine=True)
              (fn): FeedForward(
                (net): Sequential(
                  (0): Linear(in_features=512, out_features=512, bias=True)
                  (1): GELU(approximate='none')
                  (2): Dropout(p=0.5, inplace=False)
                  (3): Linear(in_features=512, out_features=512, bias=True)
                  (4): Dropout(p=0.5, inplace=False)
                )
              )
            )
          )
        )
      )
      (encoder_mu): Sequential(
        (0): Linear(in_features=512, out_features=512, bias=True)
      )
      (encoder_var): Sequential(
        (0): Linear(in_features=512, out_features=512, bias=True)
      )
      (relu): ReLU()
    )
  )
  (classifier): Conv1d(300, 1, kernel_size=(9,), stride=(1,))
  (dropout): Dropout(p=0.5, inplace=False)
)

[2023-09-17 21:38:54,010][main.py][line:79][INFO] Optimizer:Adam (
Parameter Group 0
    amsgrad: False
    betas: (0.9, 0.999)
    capturable: False
    differentiable: False
    eps: 1e-08
    foreach: None
    fused: None
    initial_lr: 0.0001
    lr: 0.0001
    maximize: False
    weight_decay: 0.0001
)

[202
…
d': 2023, 'test_bs': 10, 'smooth': 'slide', 'kappa': 7, 'ckpt_path': './ckpt/ucf__current.pkl', 'a_nums': 60, 'n_nums': 60, 'feat_dim': 1024, 'head_num': 1, 'hid_dim': 128, 'out_dim': 300, 'lr': 0.0003, 'dropout': 0.5, 'train_bs': 64, 'max_seqlen': 200, 'max_epoch': 50, 'workers': 8, 'save_dir': './ckpt/', 'logs_dir': './log_info.log'}
[2023-09-17 22:55:59,443][main.py][line:165][INFO] total params:15.9737M
[2023-09-17 22:55:59,443][main.py][line:168][INFO] Training Mode
[2023-09-17 22:55:59,444][main.py][line:78][INFO] Model:XModel(
  (self_attention): XEncoder(
    (self_attn): TCA(
      (q): Linear(in_features=1024, out_features=128, bias=True)
      (k): Linear(in_features=1024, out_features=128, bias=True)
      (v): Linear(in_features=1024, out_features=128, bias=True)
      (o): Linear(in_features=128, out_features=1024, bias=True)
      (act): Softmax(dim=-1)
    )
    (linear1): Conv1d(1024, 512, kernel_size=(1,), stride=(1,))
    (linear2): Conv1d(512, 300, kernel_size=(1,), stride=(1,))
    (dropout1): Dropout(p=0.5, inplace=False)
    (dropout2): Dropout(p=0.5, inplace=False)
    (norm): LayerNorm((1024,), eps=1e-05, elementwise_affine=True)
    (loc_adj): DistanceAdj()
    (DR_DMU): WSAD(
      (embedding): Temporal(
        (conv_1): Sequential(
          (0): Conv1d(1024, 512, kernel_size=(3,), stride=(1,), padding=(1,))
          (1): ReLU()
        )
      )
      (triplet): TripletMarginLoss()
      (Amemory): EnhancedMemoryUnit(
        (memory): Memory_Unit(
          (sig): Sigmoid()
        )
        (attention): Transformer(
          (layers): ModuleList(
            (0-1): 2 x ModuleList(
              (0): PreNorm(
                (norm): LayerNorm((512,), eps=1e-05, elementwise_affine=True)
                (fn): Attention(
                  (attend): Softmax(dim=-1)
                  (to_qkv): Linear(in_features=512, out_features=2048, bias=False)
                  (to_out): Sequential(
                    (0): Linear(in_features=1024, out_features=512, bias=True)
                    (1): Dropout(p=0.5, inplace=False)
                  )
                )
              )
              (1): PreNorm(
                (norm): LayerNorm((512,), eps=1e-05, elementwise_affine=True)
                (fn): FeedForward(
                  (net): Sequential(
                    (0): Linear(in_features=512, out_features=512, bias=True)
                    (1): GELU(approximate='none')
                    (2): Dropout(p=0.5, inplace=False)
                    (3): Linear(in_features=512, out_features=512, bias=True)
                    (4): Dropout(p=0.5, inplace=False)
                  )
                )
              )
            )
          )
        )
      )
      (Nmemory): EnhancedMemoryUnit(
        (memory): Memory_Unit(
          (sig): Sigmoid()
        )
        (attention): Transformer(
          (layers): ModuleList(
            (0-1): 2 x ModuleList(
              (0): PreNorm(
                (norm): LayerNorm((512,), eps=1e-05, elementwise_affine=True)
                (fn): Attention(
                  (attend): Softmax(dim=-1)
                  (to_qkv): Linear(in_features=512, out_features=2048, bias=False)
                  (to_out): Sequential(
                    (0): Linear(in_features=1024, out_features=512, bias=True)
                    (1): Dropout(p=0.5, inplace=False)
                  )
                )
              )
              (1): PreNorm(
                (norm): LayerNorm((512,), eps=1e-05, elementwise_affine=True)
                (fn): FeedForward(
                  (net): Sequential(
                    (0): Linear(in_features=512, out_features=512, bias=True)
                    (1): GELU(approximate='none')
                    (2): Dropout(p=0.5, inplace=False)
                    (3): Linear(in_features=512, out_features=512, bias=True)
                    (4): Dropout(p=0.5, inplace=False)
                  )
                )
              )
            )
          )
        )
      )
      (selfatt): Transformer(
        (layers): ModuleList(
          (0-1): 2 x ModuleList(
            (0): PreNorm(
              (norm): LayerNorm((512,), eps=1e-05, elementwise_affine=True)
              (fn): Attention(
                (attend): Softmax(dim=-1)
                (to_qkv): Linear(in_features=512, out_features=2048, bias=False)
                (to_out): Sequential(
                  (0): Linear(in_features=1024, out_features=512, bias=True)
                  (1): Dropout(p=0.5, inplace=False)
                )
              )
            )
            (1): PreNorm(
              (norm): LayerNorm((512,), eps=1e-05, elementwise_affine=True)
              (fn): FeedForward(
                (net): Sequential(
                  (0): Linear(in_features=512, out_features=512, bias=True)
                  (1): GELU(approximate='none')
                  (2): Dropout(p=0.5, inplace=False)
                  (3): Linear(in_features=512, out_features=512, bias=True)
                  (4): Dropout(p=0.5, inplace=False)
                )
              )
            )
          )
        )
      )
      (encoder_mu): Sequential(
        (0): Linear(in_features=512, out_features=512, bias=True)
      )
      (encoder_var): Sequential(
        (0): Linear(in_features=512, out_features=512, bias=True)
      )
      (relu): ReLU()
    )
  )
  (classifier): Conv1d(300, 1, kernel_size=(9,), stride=(1,))
  (dropout): Dropout(p=0.5, inplace=False)
)

[2023-09-17 22:55:59,444][main.py][line:79][INFO] Optimizer:Adam (
Parameter Group 0
    amsgrad: False
    betas: (0.9, 0.999)
    capturable: False
    differentiable: False
    eps: 1e-08
    foreach: None
    fused: None
    initial_lr: 0.0003
    lr: 0.0003
    maximize: False
    weight_decay: 0.0001
)

[202
…
lamda': 0.288, 'seed': 2023, 'test_bs': 10, 'smooth': 'slide', 'kappa': 7, 'ckpt_path': './ckpt/ucf__current.pkl', 'a_nums': 60, 'n_nums': 60, 'feat_dim': 1024, 'head_num': 1, 'hid_dim': 128, 'out_dim': 300, 'lr': 0.0003, 'dropout': 0.5, 'train_bs': 64, 'max_seqlen': 200, 'max_epoch': 50, 'workers': 8, 'save_dir': './ckpt/', 'logs_dir': './log_info.log'}
[2023-09-17 23:27:53,072][main.py][line:165][INFO] total params:7.5711M
[2023-09-17 23:27:53,072][main.py][line:168][INFO] Training Mode
[2023-09-17 23:27:53,072][main.py][line:78][INFO] Model:XModel(
  (self_attention): XEncoder(
    (linear1): Conv1d(1024, 512, kernel_size=(1,), stride=(1,))
    (linear2): Conv1d(512, 300, kernel_size=(1,), stride=(1,))
    (dropout1): Dropout(p=0.5, inplace=False)
    (dropout2): Dropout(p=0.5, inplace=False)
    (norm): LayerNorm((1024,), eps=1e-05, elementwise_affine=True)
    (UR_DMU): WSAD(
      (embedding): Temporal(
        (conv_1): Sequential(
          (0): Conv1d(1024, 512, kernel_size=(3,), stride=(1,), padding=(1,))
          (1): ReLU()
        )
      )
      (triplet): TripletMarginLoss()
      (Amemory): EnhancedMemoryUnit(
        (memory): Memory_Unit(
          (sig): Sigmoid()
        )
        (self_attn): TCA(
          (q): Linear(in_features=512, out_features=128, bias=True)
          (k): Linear(in_features=512, out_features=128, bias=True)
          (v): Linear(in_features=512, out_features=128, bias=True)
          (o): Linear(in_features=128, out_features=512, bias=True)
          (act): Softmax(dim=-1)
        )
        (loc_adj): DistanceAdj()
      )
      (Nmemory): EnhancedMemoryUnit(
        (memory): Memory_Unit(
          (sig): Sigmoid()
        )
        (self_attn): TCA(
          (q): Linear(in_features=512, out_features=128, bias=True)
          (k): Linear(in_features=512, out_features=128, bias=True)
          (v): Linear(in_features=512, out_features=128, bias=True)
          (o): Linear(in_features=128, out_features=512, bias=True)
          (act): Softmax(dim=-1)
        )
        (loc_adj): DistanceAdj()
      )
      (selfatt): Transformer(
        (layers): ModuleList(
          (0-1): 2 x ModuleList(
            (0): PreNorm(
              (norm): LayerNorm((512,), eps=1e-05, elementwise_affine=True)
              (fn): Attention(
                (attend): Softmax(dim=-1)
                (to_qkv): Linear(in_features=512, out_features=2048, bias=False)
                (to_out): Sequential(
                  (0): Linear(in_features=1024, out_features=512, bias=True)
                  (1): Dropout(p=0.5, inplace=False)
                )
              )
            )
            (1): PreNorm(
              (norm): LayerNorm((512,), eps=1e-05, elementwise_affine=True)
              (fn): FeedForward(
                (net): Sequential(
                  (0): Linear(in_features=512, out_features=512, bias=True)
                  (1): GELU(approximate='none')
                  (2): Dropout(p=0.5, inplace=False)
                  (3): Linear(in_features=512, out_features=512, bias=True)
                  (4): Dropout(p=0.5, inplace=False)
                )
              )
            )
          )
        )
      )
      (encoder_mu): Sequential(
        (0): Linear(in_features=512, out_features=512, bias=True)
      )
      (encoder_var): Sequential(
        (0): Linear(in_features=512, out_features=512, bias=True)
      )
      (relu): ReLU()
    )
  )
  (classifier): Conv1d(300, 1, kernel_size=(9,), stride=(1,))
  (dropout): Dropout(p=0.5, inplace=False)
)

[2023-09-17 23:27:53,072][main.py][line:79][INFO] Optimizer:Adam (
Parameter Group 0
    amsgrad: False
    betas: (0.9, 0.999)
    capturable: False
    differentiable: False
    eps: 1e-08
    foreach: None
    fused: None
    initial_lr: 0.0003
    lr: 0.0003
    maximize: False
    weight_decay: 0.0001
)

[202
…
ed': 2023, 'test_bs': 10, 'smooth': 'slide', 'kappa': 7, 'ckpt_path': './ckpt/ucf__current.pkl', 'a_nums': 60, 'n_nums': 60, 'feat_dim': 1024, 'head_num': 1, 'hid_dim': 128, 'out_dim': 300, 'lr': 0.0003, 'dropout': 0.5, 'train_bs': 64, 'max_seqlen': 200, 'max_epoch': 50, 'workers': 8, 'save_dir': './ckpt/', 'logs_dir': './log_info.log'}
[2023-09-17 23:33:03,016][main.py][line:165][INFO] total params:8.0968M
[2023-09-17 23:33:03,016][main.py][line:168][INFO] Training Mode
[2023-09-17 23:33:03,017][main.py][line:78][INFO] Model:XModel(
  (self_attention): XEncoder(
    (self_attn): TCA(
      (q): Linear(in_features=1024, out_features=128, bias=True)
      (k): Linear(in_features=1024, out_features=128, bias=True)
      (v): Linear(in_features=1024, out_features=128, bias=True)
      (o): Linear(in_features=128, out_features=1024, bias=True)
      (act): Softmax(dim=-1)
    )
    (linear1): Conv1d(1024, 512, kernel_size=(1,), stride=(1,))
    (linear2): Conv1d(512, 300, kernel_size=(1,), stride=(1,))
    (dropout1): Dropout(p=0.5, inplace=False)
    (dropout2): Dropout(p=0.5, inplace=False)
    (norm): LayerNorm((1024,), eps=1e-05, elementwise_affine=True)
    (loc_adj): DistanceAdj()
    (UR_DMU): WSAD(
      (embedding): Temporal(
        (conv_1): Sequential(
          (0): Conv1d(1024, 512, kernel_size=(3,), stride=(1,), padding=(1,))
          (1): ReLU()
        )
      )
      (triplet): TripletMarginLoss()
      (Amemory): EnhancedMemoryUnit(
        (memory): Memory_Unit(
          (sig): Sigmoid()
        )
        (self_attn): TCA(
          (q): Linear(in_features=512, out_features=128, bias=True)
          (k): Linear(in_features=512, out_features=128, bias=True)
          (v): Linear(in_features=512, out_features=128, bias=True)
          (o): Linear(in_features=128, out_features=512, bias=True)
          (act): Softmax(dim=-1)
        )
        (loc_adj): DistanceAdj()
      )
      (Nmemory): EnhancedMemoryUnit(
        (memory): Memory_Unit(
          (sig): Sigmoid()
        )
        (self_attn): TCA(
          (q): Linear(in_features=512, out_features=128, bias=True)
          (k): Linear(in_features=512, out_features=128, bias=True)
          (v): Linear(in_features=512, out_features=128, bias=True)
          (o): Linear(in_features=128, out_features=512, bias=True)
          (act): Softmax(dim=-1)
        )
        (loc_adj): DistanceAdj()
      )
      (selfatt): Transformer(
        (layers): ModuleList(
          (0-1): 2 x ModuleList(
            (0): PreNorm(
              (norm): LayerNorm((512,), eps=1e-05, elementwise_affine=True)
              (fn): Attention(
                (attend): Softmax(dim=-1)
                (to_qkv): Linear(in_features=512, out_features=2048, bias=False)
                (to_out): Sequential(
                  (0): Linear(in_features=1024, out_features=512, bias=True)
                  (1): Dropout(p=0.5, inplace=False)
                )
              )
            )
            (1): PreNorm(
              (norm): LayerNorm((512,), eps=1e-05, elementwise_affine=True)
              (fn): FeedForward(
                (net): Sequential(
                  (0): Linear(in_features=512, out_features=512, bias=True)
                  (1): GELU(approximate='none')
                  (2): Dropout(p=0.5, inplace=False)
                  (3): Linear(in_features=512, out_features=512, bias=True)
                  (4): Dropout(p=0.5, inplace=False)
                )
              )
            )
          )
        )
      )
      (encoder_mu): Sequential(
        (0): Linear(in_features=512, out_features=512, bias=True)
      )
      (encoder_var): Sequential(
        (0): Linear(in_features=512, out_features=512, bias=True)
      )
      (relu): ReLU()
    )
  )
  (classifier): Conv1d(300, 1, kernel_size=(9,), stride=(1,))
  (dropout): Dropout(p=0.5, inplace=False)
)

[2023-09-17 23:33:03,017][main.py][line:79][INFO] Optimizer:Adam (
Parameter Group 0
    amsgrad: False
    betas: (0.9, 0.999)
    capturable: False
    differentiable: False
    eps: 1e-08
    foreach: None
    fused: None
    initial_lr: 0.0003
    lr: 0.0003
    maximize: False
    weight_decay: 0.0001
)

[202
…
ed': 2023, 'test_bs': 10, 'smooth': 'slide', 'kappa': 7, 'ckpt_path': './ckpt/ucf__current.pkl', 'a_nums': 60, 'n_nums': 60, 'feat_dim': 1024, 'head_num': 1, 'hid_dim': 128, 'out_dim': 300, 'lr': 0.0003, 'dropout': 0.5, 'train_bs': 64, 'max_seqlen': 200, 'max_epoch': 50, 'workers': 8, 'save_dir': './ckpt/', 'logs_dir': './log_info.log'}
[2023-09-18 00:11:26,913][main.py][line:165][INFO] total params:8.3609M
[2023-09-18 00:11:26,913][main.py][line:168][INFO] Training Mode
[2023-09-18 00:11:26,913][main.py][line:78][INFO] Model:XModel(
  (self_attention): XEncoder(
    (self_attn): TCA(
      (q): Linear(in_features=1024, out_features=128, bias=True)
      (k): Linear(in_features=1024, out_features=128, bias=True)
      (v): Linear(in_features=1024, out_features=128, bias=True)
      (o): Linear(in_features=128, out_features=1024, bias=True)
      (act): Softmax(dim=-1)
    )
    (linear1): Conv1d(1024, 512, kernel_size=(1,), stride=(1,))
    (linear2): Conv1d(512, 300, kernel_size=(1,), stride=(1,))
    (dropout1): Dropout(p=0.5, inplace=False)
    (dropout2): Dropout(p=0.5, inplace=False)
    (norm): LayerNorm((1024,), eps=1e-05, elementwise_affine=True)
    (loc_adj): DistanceAdj()
    (UR_DMU): WSAD(
      (embedding): Temporal(
        (conv_1): Sequential(
          (0): Conv1d(1024, 512, kernel_size=(3,), stride=(1,), padding=(1,))
          (1): ReLU()
        )
      )
      (triplet): TripletMarginLoss()
      (Amemory): EnhancedMemoryUnit(
        (memory): Memory_Unit(
          (sig): Sigmoid()
        )
        (self_attn): TCA(
          (q): Linear(in_features=512, out_features=128, bias=True)
          (k): Linear(in_features=512, out_features=128, bias=True)
          (v): Linear(in_features=512, out_features=128, bias=True)
          (o): Linear(in_features=128, out_features=512, bias=True)
          (act): Softmax(dim=-1)
        )
        (loc_adj): DistanceAdj()
      )
      (Nmemory): EnhancedMemoryUnit(
        (memory): Memory_Unit(
          (sig): Sigmoid()
        )
        (self_attn): TCA(
          (q): Linear(in_features=512, out_features=128, bias=True)
          (k): Linear(in_features=512, out_features=128, bias=True)
          (v): Linear(in_features=512, out_features=128, bias=True)
          (o): Linear(in_features=128, out_features=512, bias=True)
          (act): Softmax(dim=-1)
        )
        (loc_adj): DistanceAdj()
      )
      (selfatt): Transformer(
        (layers): ModuleList(
          (0-1): 2 x ModuleList(
            (0): PreNorm(
              (norm): LayerNorm((512,), eps=1e-05, elementwise_affine=True)
              (fn): Attention(
                (attend): Softmax(dim=-1)
                (to_qkv): Linear(in_features=512, out_features=2048, bias=False)
                (to_out): Sequential(
                  (0): Linear(in_features=1024, out_features=512, bias=True)
                  (1): Dropout(p=0.5, inplace=False)
                )
              )
            )
            (1): PreNorm(
              (norm): LayerNorm((512,), eps=1e-05, elementwise_affine=True)
              (fn): FeedForward(
                (net): Sequential(
                  (0): Linear(in_features=512, out_features=512, bias=True)
                  (1): GELU(approximate='none')
                  (2): Dropout(p=0.5, inplace=False)
                  (3): Linear(in_features=512, out_features=512, bias=True)
                  (4): Dropout(p=0.5, inplace=False)
                )
              )
            )
          )
        )
      )
      (encoder_mu): Sequential(
        (0): Linear(in_features=512, out_features=512, bias=True)
      )
      (encoder_var): Sequential(
        (0): Linear(in_features=512, out_features=512, bias=True)
      )
      (relu): ReLU()
      (self_attn): TCA(
        (q): Linear(in_features=512, out_features=128, bias=True)
        (k): Linear(in_features=512, out_features=128, bias=True)
        (v): Linear(in_features=512, out_features=128, bias=True)
        (o): Linear(in_features=128, out_features=512, bias=True)
        (act): Softmax(dim=-1)
      )
      (loc_adj): DistanceAdj()
      (layer_norm): LayerNorm((512,), eps=1e-05, elementwise_affine=True)
    )
  )
  (classifier): Conv1d(300, 1, kernel_size=(9,), stride=(1,))
  (dropout): Dropout(p=0.5, inplace=False)
)

[2023-09-18 00:11:26,913][main.py][line:79][INFO] Optimizer:Adam (
Parameter Group 0
    amsgrad: False
    betas: (0.9, 0.999)
    capturable: False
    differentiable: False
    eps: 1e-08
    foreach: None
    fused: None
    initial_lr: 0.0003
    lr: 0.0003
    maximize: False
    weight_decay: 0.0001
)

[2023-09-18 00:12:21,915][main.py][line:82][INFO] Random initialize AUCAUC:0.5687 Anomaly AUC:0.52189
…
 'lamda': 1.0, 'seed': 2023, 'test_bs': 10, 'smooth': 'slide', 'kappa': 7, 'ckpt_path': './ckpt/ucf__current.pkl', 'a_nums': 60, 'n_nums': 60, 'feat_dim': 1024, 'head_num': 1, 'hid_dim': 128, 'out_dim': 300, 'lr': 0.0001, 'dropout': 0.1, 'train_bs': 64, 'max_seqlen': 200, 'max_epoch': 50, 'workers': 8, 'save_dir': './ckpt/', 'logs_dir': './log_info.log'}
[2023-09-18 11:22:58,097][main.py][line:165][INFO] total params:7.8352M
[2023-09-18 11:22:58,097][main.py][line:168][INFO] Training Mode
[2023-09-18 11:22:58,097][main.py][line:78][INFO] Model:XModel(
  (self_attention): XEncoder(
    (linear1): Conv1d(1024, 512, kernel_size=(1,), stride=(1,))
    (linear2): Conv1d(512, 300, kernel_size=(1,), stride=(1,))
    (dropout1): Dropout(p=0.1, inplace=False)
    (dropout2): Dropout(p=0.1, inplace=False)
    (norm): LayerNorm((1024,), eps=1e-05, elementwise_affine=True)
    (UR_DMU): WSAD(
      (embedding): Temporal(
        (conv_1): Sequential(
          (0): Conv1d(1024, 512, kernel_size=(3,), stride=(1,), padding=(1,))
          (1): ReLU()
        )
      )
      (triplet): TripletMarginLoss()
      (Amemory): EnhancedMemoryUnit(
        (memory): Memory_Unit(
          (sig): Sigmoid()
        )
        (self_attn): TCA(
          (q): Linear(in_features=512, out_features=128, bias=True)
          (k): Linear(in_features=512, out_features=128, bias=True)
          (v): Linear(in_features=512, out_features=128, bias=True)
          (o): Linear(in_features=128, out_features=512, bias=True)
          (act): Softmax(dim=-1)
        )
        (loc_adj): DistanceAdj()
      )
      (Nmemory): EnhancedMemoryUnit(
        (memory): Memory_Unit(
          (sig): Sigmoid()
        )
        (self_attn): TCA(
          (q): Linear(in_features=512, out_features=128, bias=True)
          (k): Linear(in_features=512, out_features=128, bias=True)
          (v): Linear(in_features=512, out_features=128, bias=True)
          (o): Linear(in_features=128, out_features=512, bias=True)
          (act): Softmax(dim=-1)
        )
        (loc_adj): DistanceAdj()
      )
      (selfatt): Transformer(
        (layers): ModuleList(
          (0-1): 2 x ModuleList(
            (0): PreNorm(
              (norm): LayerNorm((512,), eps=1e-05, elementwise_affine=True)
              (fn): Attention(
                (attend): Softmax(dim=-1)
                (to_qkv): Linear(in_features=512, out_features=2048, bias=False)
                (to_out): Sequential(
                  (0): Linear(in_features=1024, out_features=512, bias=True)
                  (1): Dropout(p=0.1, inplace=False)
                )
              )
            )
            (1): PreNorm(
              (norm): LayerNorm((512,), eps=1e-05, elementwise_affine=True)
              (fn): FeedForward(
                (net): Sequential(
                  (0): Linear(in_features=512, out_features=512, bias=True)
                  (1): GELU(approximate='none')
                  (2): Dropout(p=0.1, inplace=False)
                  (3): Linear(in_features=512, out_features=512, bias=True)
                  (4): Dropout(p=0.1, inplace=False)
                )
              )
            )
          )
        )
      )
      (encoder_mu): Sequential(
        (0): Linear(in_features=512, out_features=512, bias=True)
      )
      (encoder_var): Sequential(
        (0): Linear(in_features=512, out_features=512, bias=True)
      )
      (relu): ReLU()
      (self_attn): TCA(
        (q): Linear(in_features=512, out_features=128, bias=True)
        (k): Linear(in_features=512, out_features=128, bias=True)
        (v): Linear(in_features=512, out_features=128, bias=True)
        (o): Linear(in_features=128, out_features=512, bias=True)
        (act): Softmax(dim=-1)
      )
      (loc_adj): DistanceAdj()
      (layer_norm): LayerNorm((512,), eps=1e-05, elementwise_affine=True)
    )
  )
  (classifier): Conv1d(300, 1, kernel_size=(9,), stride=(1,))
  (dropout): Dropout(p=0.1, inplace=False)
)

[2023-09-18 11:22:58,098][main.py][line:79][INFO] Optimizer:Adam (
Parameter Group 0
    amsgrad: False
    betas: (0.9, 0.999)
    capturable: False
    differentiable: False
    eps: 1e-08
    foreach: None
    fused: None
    initial_lr: 0.0001
    lr: 0.0001
    maximize: False
    weight_decay: 0.0001
)

[2023-09-18 11:23:52,773][main.py][line:82][INFO] Random initialize AUCAUC:0.5092 Anomaly AUC:0.52983
…
 'lamda': 1.0, 'seed': 2023, 'test_bs': 10, 'smooth': 'slide', 'kappa': 7, 'ckpt_path': './ckpt/ucf__current.pkl', 'a_nums': 60, 'n_nums': 60, 'feat_dim': 1024, 'head_num': 1, 'hid_dim': 128, 'out_dim': 300, 'lr': 0.0001, 'dropout': 0.1, 'train_bs': 64, 'max_seqlen': 200, 'max_epoch': 50, 'workers': 8, 'save_dir': './ckpt/', 'logs_dir': './log_info.log'}
[2023-09-18 11:39:49,975][main.py][line:165][INFO] total params:8.6221M
[2023-09-18 11:39:49,975][main.py][line:168][INFO] Training Mode
[2023-09-18 11:39:49,976][main.py][line:78][INFO] Model:XModel(
  (self_attention): XEncoder(
    (linear1): Conv1d(1024, 512, kernel_size=(1,), stride=(1,))
    (linear2): Conv1d(512, 300, kernel_size=(1,), stride=(1,))
    (dropout1): Dropout(p=0.1, inplace=False)
    (dropout2): Dropout(p=0.1, inplace=False)
    (norm): LayerNorm((1024,), eps=1e-05, elementwise_affine=True)
    (UR_DMU): WSAD(
      (embedding): Temporal(
        (conv_1): Sequential(
          (0): Conv1d(1024, 512, kernel_size=(3,), stride=(1,), padding=(1,))
          (1): ReLU()
        )
      )
      (triplet): TripletMarginLoss()
      (Amemory): EnhancedMemoryUnit(
        (memory): Memory_Unit(
          (sig): Sigmoid()
        )
        (self_attn): TCA(
          (q): Linear(in_features=512, out_features=128, bias=True)
          (k): Linear(in_features=512, out_features=128, bias=True)
          (v): Linear(in_features=512, out_features=128, bias=True)
          (o): Linear(in_features=128, out_features=512, bias=True)
          (act): Softmax(dim=-1)
        )
        (loc_adj): DistanceAdj()
      )
      (Nmemory): EnhancedMemoryUnit(
        (memory): Memory_Unit(
          (sig): Sigmoid()
        )
        (self_attn): TCA(
          (q): Linear(in_features=512, out_features=128, bias=True)
          (k): Linear(in_features=512, out_features=128, bias=True)
          (v): Linear(in_features=512, out_features=128, bias=True)
          (o): Linear(in_features=128, out_features=512, bias=True)
          (act): Softmax(dim=-1)
        )
        (loc_adj): DistanceAdj()
      )
      (selfatt): Transformer(
        (layers): ModuleList(
          (0-1): 2 x ModuleList(
            (0): PreNorm(
              (norm): LayerNorm((512,), eps=1e-05, elementwise_affine=True)
              (fn): Attention(
                (attend): Softmax(dim=-1)
                (to_qkv): Linear(in_features=512, out_features=2048, bias=False)
                (to_out): Sequential(
                  (0): Linear(in_features=1024, out_features=512, bias=True)
                  (1): Dropout(p=0.1, inplace=False)
                )
              )
            )
            (1): PreNorm(
              (norm): LayerNorm((512,), eps=1e-05, elementwise_affine=True)
              (fn): FeedForward(
                (net): Sequential(
                  (0): Linear(in_features=512, out_features=512, bias=True)
                  (1): GELU(approximate='none')
                  (2): Dropout(p=0.1, inplace=False)
                  (3): Linear(in_features=512, out_features=512, bias=True)
                  (4): Dropout(p=0.1, inplace=False)
                )
              )
            )
          )
        )
      )
      (encoder_mu): Sequential(
        (0): Linear(in_features=512, out_features=512, bias=True)
      )
      (encoder_var): Sequential(
        (0): Linear(in_features=512, out_features=512, bias=True)
      )
      (relu): ReLU()
      (self_attn): TCA(
        (q): Linear(in_features=512, out_features=128, bias=True)
        (k): Linear(in_features=512, out_features=128, bias=True)
        (v): Linear(in_features=512, out_features=128, bias=True)
        (o): Linear(in_features=128, out_features=512, bias=True)
        (act): Softmax(dim=-1)
      )
      (loc_adj): DistanceAdj()
      (layer_norm): LayerNorm((512,), eps=1e-05, elementwise_affine=True)
      (embedding2): Temporal(
        (conv_1): Sequential(
          (0): Conv1d(512, 512, kernel_size=(3,), stride=(1,), padding=(1,))
          (1): ReLU()
        )
      )
    )
  )
  (classifier): Conv1d(300, 1, kernel_size=(9,), stride=(1,))
  (dropout): Dropout(p=0.1, inplace=False)
)

[2023-09-18 11:39:49,976][main.py][line:79][INFO] Optimizer:Adam (
Parameter Group 0
    amsgrad: False
    betas: (0.9, 0.999)
    capturable: False
    differentiable: False
    eps: 1e-08
    foreach: None
    fused: None
    initial_lr: 0.0001
    lr: 0.0001
    maximize: False
    weight_decay: 0.0001
)

[2023-09-18 11:40:44,630][main.py][line:82][INFO] Random initialize AUCAUC:0.6630 Anomaly AUC:0.57623
…
 'lamda': 1.0, 'seed': 2023, 'test_bs': 10, 'smooth': 'slide', 'kappa': 7, 'ckpt_path': './ckpt/ucf__current.pkl', 'a_nums': 60, 'n_nums': 60, 'feat_dim': 1024, 'head_num': 1, 'hid_dim': 128, 'out_dim': 300, 'lr': 0.0001, 'dropout': 0.5, 'train_bs': 64, 'max_seqlen': 200, 'max_epoch': 50, 'workers': 8, 'save_dir': './ckpt/', 'logs_dir': './log_info.log'}
[2023-09-18 13:01:53,012][main.py][line:165][INFO] total params:8.0961M
[2023-09-18 13:01:53,012][main.py][line:168][INFO] Training Mode
[2023-09-18 13:01:53,013][main.py][line:78][INFO] Model:XModel(
  (self_attention): XEncoder(
    (linear1): Conv1d(1024, 512, kernel_size=(1,), stride=(1,))
    (linear2): Conv1d(512, 300, kernel_size=(1,), stride=(1,))
    (dropout1): Dropout(p=0.5, inplace=False)
    (dropout2): Dropout(p=0.5, inplace=False)
    (norm): LayerNorm((1024,), eps=1e-05, elementwise_affine=True)
    (UR_DMU): WSAD(
      (embedding): Temporal(
        (conv_1): Sequential(
          (0): Conv1d(1024, 512, kernel_size=(3,), stride=(1,), padding=(1,))
          (1): ReLU()
        )
      )
      (triplet): TripletMarginLoss()
      (Amemory): Memory_Unit(
        (sig): Sigmoid()
      )
      (Nmemory): Memory_Unit(
        (sig): Sigmoid()
      )
      (selfatt): Transformer(
        (layers): ModuleList(
          (0-1): 2 x ModuleList(
            (0): PreNorm(
              (norm): LayerNorm((512,), eps=1e-05, elementwise_affine=True)
              (fn): Attention(
                (attend): Softmax(dim=-1)
                (to_qkv): Linear(in_features=512, out_features=2048, bias=False)
                (to_out): Sequential(
                  (0): Linear(in_features=1024, out_features=512, bias=True)
                  (1): Dropout(p=0.5, inplace=False)
                )
              )
            )
            (1): PreNorm(
              (norm): LayerNorm((512,), eps=1e-05, elementwise_affine=True)
              (fn): FeedForward(
                (net): Sequential(
                  (0): Linear(in_features=512, out_features=512, bias=True)
                  (1): GELU(approximate='none')
                  (2): Dropout(p=0.5, inplace=False)
                  (3): Linear(in_features=512, out_features=512, bias=True)
                  (4): Dropout(p=0.5, inplace=False)
                )
              )
            )
          )
        )
      )
      (encoder_mu): Sequential(
        (0): Linear(in_features=512, out_features=512, bias=True)
      )
      (encoder_var): Sequential(
        (0): Linear(in_features=512, out_features=512, bias=True)
      )
      (relu): ReLU()
      (self_attn): TCA(
        (q): Linear(in_features=512, out_features=128, bias=True)
        (k): Linear(in_features=512, out_features=128, bias=True)
        (v): Linear(in_features=512, out_features=128, bias=True)
        (o): Linear(in_features=128, out_features=512, bias=True)
        (act): Softmax(dim=-1)
      )
      (loc_adj): DistanceAdj()
      (layer_norm): LayerNorm((512,), eps=1e-05, elementwise_affine=True)
      (embedding2): Temporal(
        (conv_1): Sequential(
          (0): Conv1d(512, 512, kernel_size=(3,), stride=(1,), padding=(1,))
          (1): ReLU()
        )
      )
      (dropout): Dropout(p=0.5, inplace=False)
    )
  )
  (classifier): Conv1d(300, 1, kernel_size=(9,), stride=(1,))
  (dropout): Dropout(p=0.5, inplace=False)
)

[2023-09-18 13:01:53,013][main.py][line:79][INFO] Optimizer:Adam (
Parameter Group 0
    amsgrad: False
    betas: (0.9, 0.999)
    capturable: False
    differentiable: False
    eps: 1e-08
    foreach: None
    fused: None
    initial_lr: 0.0001
    lr: 0.0001
    maximize: False
    weight_decay: 0.0001
)

[2023-09-18 13:02:14,905][main.py][line:82][INFO] Random initialize AUCAUC:0.4709 Anomaly AUC:0.45023
…
