…
'a_nums': 50, 'n_nums': 50, 'k': 20, 'margin': 100, 'max_epoch': 6, 'clip_feat_prefix': '/home/yukaneko/dev/CLIP-TSA_dataset/ucf/features/', 'feat_dim': 1024, 'head_num': 1, 'hid_dim': 128, 'out_dim': 300, 'lr': 0.0001, 'dropout': 0.5, 'train_bs': 32, 'max_seqlen': 200, 'workers': 8, 'save_dir': './ckpt/', 'logs_dir': './log_info.log'}
[2023-11-21 19:24:19,223][main.py][line:344][INFO] total params:8.2169M
[2023-11-21 19:24:19,224][main.py][line:347][INFO] Training Mode
[2023-11-21 19:24:19,226][main.py][line:143][INFO] Model:XModel(
  (self_attention): XEncoder(
    (self_attn): TCA(
      (q): Linear(in_features=1024, out_features=128, bias=True)
      (k): Linear(in_features=1024, out_features=128, bias=True)
      (v): Linear(in_features=1024, out_features=128, bias=True)
      (o): Linear(in_features=128, out_features=1024, bias=True)
      (act): Softmax(dim=-1)
    )
    (linear1): Conv1d(1024, 512, kernel_size=(1,), stride=(1,))
    (linear2): Conv1d(512, 300, kernel_size=(1,), stride=(1,))
    (dropout1): Pdropout()
    (dropout2): Pdropout()
    (norm): LayerNorm((1024,), eps=1e-05, elementwise_affine=True)
    (loc_adj): DistanceAdj()
    (UR_DMU): WSAD(
      (embedding): Temporal(
        (conv_1): Sequential(
          (0): Conv1d(1024, 512, kernel_size=(3,), stride=(1,), padding=(1,))
          (1): ReLU()
        )
      )
      (triplet): TripletMarginLoss()
      (Amemory): Memory_Unit(
        (sig): Sigmoid()
      )
      (Nmemory): Memory_Unit(
        (sig): Sigmoid()
      )
      (selfatt): Transformer(
        (layers): ModuleList(
          (0-1): 2 x ModuleList(
            (0): PreNorm(
              (norm): LayerNorm((512,), eps=1e-05, elementwise_affine=True)
              (fn): Attention(
                (attend): Softmax(dim=-1)
                (to_qkv): Linear(in_features=512, out_features=2048, bias=False)
                (to_out): Sequential(
                  (0): Linear(in_features=1024, out_features=512, bias=True)
                  (1): Dropout(p=0.5, inplace=False)
                )
              )
            )
            (1): PreNorm(
              (norm): LayerNorm((512,), eps=1e-05, elementwise_affine=True)
              (fn): FeedForward(
                (net): Sequential(
                  (0): Linear(in_features=512, out_features=512, bias=True)
                  (1): GELU(approximate='none')
                  (2): Dropout(p=0.5, inplace=False)
                  (3): Linear(in_features=512, out_features=512, bias=True)
                  (4): Dropout(p=0.5, inplace=False)
                )
              )
            )
          )
        )
      )
      (encoder_mu): Sequential(
        (0): Linear(in_features=512, out_features=512, bias=True)
      )
      (encoder_var): Sequential(
        (0): Linear(in_features=512, out_features=512, bias=True)
      )
      (relu): ReLU()
    )
    (hard_atten): HardAttention(
      (scorer): MLP(
        (fc1): Linear(in_features=512, out_features=256, bias=True)
        (fc2): Linear(in_features=256, out_features=1, bias=True)
        (relu): ReLU()
        (sigmoid): Sigmoid()
      )
      (hard_att): PerturbedTopK()
    )
    (conv1): Conv1d(1024, 512, kernel_size=(1,), stride=(1,))
    (dropout): Dropout(p=0.05, inplace=False)
  )
  (classifier): Conv1d(300, 1, kernel_size=(9,), stride=(1,))
  (dropout): Dropout(p=0.5, inplace=False)
)

[2023-11-21 19:24:48,398][main.py][line:292][INFO] Config:{'dataset': 'ucf-crime', 'model_name': 'ucf_', 'metrics': 'AUC', 'feat_prefix': './data/ucf-i3d', 'train_list': './list/ucf/train.list', 'test_list': './list/ucf/test.list', 'token_feat': './list/ucf/ucf-prompt.npy', 'gt': './list/ucf/ucf-gt.npy', 'win_size
…
