…
: 0.5, 'margin': 100, 'max_epoch': 6, 'clip_feat_prefix': '/home/yukaneko/dev/CLIP-TSA_dataset/ucf/features/', 'result_dir': './result/ucf/', 'feat_dim': 1024, 'head_num': 1, 'hid_dim': 128, 'out_dim': 300, 'lr': 0.0001, 'dropout': 0.5, 'train_bs': 32, 'max_seqlen': 200, 'workers': 8, 'save_dir': './ckpt/', 'logs_dir': './log_info.log'}
[2024-03-08 15:32:05,227][main.py][line:259][INFO] total params:8.3485M
[2024-03-08 15:32:05,227][main.py][line:262][INFO] Training Mode
[2024-03-08 15:32:05,227][main.py][line:70][INFO] Model:XModel(
  (self_attention): XEncoder(
    (self_attn): TCA(
      (q): Linear(in_features=1024, out_features=128, bias=True)
      (k): Linear(in_features=1024, out_features=128, bias=True)
      (v): Linear(in_features=1024, out_features=128, bias=True)
      (o): Linear(in_features=128, out_features=1024, bias=True)
      (act): Softmax(dim=-1)
    )
    (linear1): Conv1d(1024, 512, kernel_size=(1,), stride=(1,))
    (linear2): Conv1d(512, 300, kernel_size=(1,), stride=(1,))
    (dropout1): Pdropout()
    (dropout2): Pdropout()
    (norm): LayerNorm((1024,), eps=1e-05, elementwise_affine=True)
    (loc_adj): DistanceAdj()
    (UR_DMU): WSAD(
      (embedding): Temporal(
        (conv_1): Sequential(
          (0): Conv1d(1024, 512, kernel_size=(3,), stride=(1,), padding=(1,))
          (1): ReLU()
        )
      )
      (triplet): TripletMarginLoss()
      (Amemory): Memory_Unit(
        (sig): Sigmoid()
      )
      (Nmemory): Memory_Unit(
        (sig): Sigmoid()
      )
      (selfatt): Transformer(
        (layers): ModuleList(
          (0-1): 2 x ModuleList(
            (0): PreNorm(
              (norm): LayerNorm((512,), eps=1e-05, elementwise_affine=True)
              (fn): Attention(
                (attend): Softmax(dim=-1)
                (to_qkv): Linear(in_features=512, out_features=2048, bias=False)
                (to_out): Sequential(
                  (0): Linear(in_features=1024, out_features=512, bias=True)
                  (1): Dropout(p=0.5, inplace=False)
                )
              )
            )
            (1): PreNorm(
              (norm): LayerNorm((512,), eps=1e-05, elementwise_affine=True)
              (fn): FeedForward(
                (net): Sequential(
                  (0): Linear(in_features=512, out_features=512, bias=True)
                  (1): GELU(approximate='none')
                  (2): Dropout(p=0.5, inplace=False)
                  (3): Linear(in_features=512, out_features=512, bias=True)
                  (4): Dropout(p=0.5, inplace=False)
                )
              )
            )
          )
        )
      )
      (encoder_mu): Sequential(
        (0): Linear(in_features=512, out_features=512, bias=True)
      )
      (encoder_var): Sequential(
        (0): Linear(in_features=512, out_features=512, bias=True)
      )
      (relu): ReLU()
      (hard_atten): HardAttention(
        (scorer): MLP(
          (fc1): Linear(in_features=512, out_features=256, bias=True)
          (fc2): Linear(in_features=256, out_features=1, bias=True)
          (relu): ReLU()
          (sigmoid): Sigmoid()
        )
        (hard_att): PerturbedTopK()
      )
    )
    (hard_atten): HardAttention(
      (scorer): MLP(
        (fc1): Linear(in_features=512, out_features=256, bias=True)
        (fc2): Linear(in_features=256, out_features=1, bias=True)
        (relu): ReLU()
        (sigmoid): Sigmoid()
      )
      (hard_att): PerturbedTopK()
    )
    (conv1): Conv1d(1024, 512, kernel_size=(1,), stride=(1,))
    (dropout): Dropout(p=0.05, inplace=False)
  )
  (classifier): Conv1d(300, 1, kernel_size=(9,), stride=(1,))
  (dropout): Dropout(p=0.5, inplace=False)
)

[2024-03-08 15:32:05,228][main.py][line:71][INFO] Optimizer:Adam (
Parameter Group 0
    amsgrad: False
    betas: (0.9, 0.999)
    capturable: False
    differentiable: False
    eps: 1e-08
    foreach: None
    fused: None
    lr: 0.0001
    maximize: False
    weight_decay: 0.005
)

[2024-03-08 15:32:21,495][main.py][line:76][INFO] Random initialize AUCAUC:0.5465 Anomaly AUC:0.54814
…
': 0.6, 'margin': 100, 'max_epoch': 20, 'clip_feat_prefix': '/home/yukaneko/dev/CLIP-TSA_dataset/xd/features/', 'result_dir': './result/xd/', 'feat_dim': 1024, 'head_num': 1, 'hid_dim': 128, 'out_dim': 300, 'lr': 0.0001, 'dropout': 0.5, 'train_bs': 32, 'max_seqlen': 200, 'workers': 8, 'save_dir': './ckpt/', 'logs_dir': './log_info.log'}
[2024-03-09 14:23:51,083][main.py][line:259][INFO] total params:8.3467M
[2024-03-09 14:23:51,083][main.py][line:262][INFO] Training Mode
[2024-03-09 14:23:51,083][main.py][line:70][INFO] Model:XModel(
  (self_attention): XEncoder(
    (self_attn): TCA(
      (q): Linear(in_features=1024, out_features=128, bias=True)
      (k): Linear(in_features=1024, out_features=128, bias=True)
      (v): Linear(in_features=1024, out_features=128, bias=True)
      (o): Linear(in_features=128, out_features=1024, bias=True)
      (act): Softmax(dim=-1)
    )
    (linear1): Conv1d(1024, 512, kernel_size=(1,), stride=(1,))
    (linear2): Conv1d(512, 300, kernel_size=(1,), stride=(1,))
    (dropout1): Pdropout()
    (dropout2): Pdropout()
    (norm): LayerNorm((1024,), eps=1e-05, elementwise_affine=True)
    (loc_adj): DistanceAdj()
    (UR_DMU): WSAD(
      (embedding): Temporal(
        (conv_1): Sequential(
          (0): Conv1d(1024, 512, kernel_size=(3,), stride=(1,), padding=(1,))
          (1): ReLU()
        )
      )
      (triplet): TripletMarginLoss()
      (Amemory): Memory_Unit(
        (sig): Sigmoid()
      )
      (Nmemory): Memory_Unit(
        (sig): Sigmoid()
      )
      (selfatt): Transformer(
        (layers): ModuleList(
          (0-1): 2 x ModuleList(
            (0): PreNorm(
              (norm): LayerNorm((512,), eps=1e-05, elementwise_affine=True)
              (fn): Attention(
                (attend): Softmax(dim=-1)
                (to_qkv): Linear(in_features=512, out_features=2048, bias=False)
                (to_out): Sequential(
                  (0): Linear(in_features=1024, out_features=512, bias=True)
                  (1): Dropout(p=0.5, inplace=False)
                )
              )
            )
            (1): PreNorm(
              (norm): LayerNorm((512,), eps=1e-05, elementwise_affine=True)
              (fn): FeedForward(
                (net): Sequential(
                  (0): Linear(in_features=512, out_features=512, bias=True)
                  (1): GELU(approximate='none')
                  (2): Dropout(p=0.5, inplace=False)
                  (3): Linear(in_features=512, out_features=512, bias=True)
                  (4): Dropout(p=0.5, inplace=False)
                )
              )
            )
          )
        )
      )
      (encoder_mu): Sequential(
        (0): Linear(in_features=512, out_features=512, bias=True)
      )
      (encoder_var): Sequential(
        (0): Linear(in_features=512, out_features=512, bias=True)
      )
      (relu): ReLU()
      (hard_atten): HardAttention(
        (scorer): MLP(
          (fc1): Linear(in_features=512, out_features=256, bias=True)
          (fc2): Linear(in_features=256, out_features=1, bias=True)
          (relu): ReLU()
          (sigmoid): Sigmoid()
        )
        (hard_att): PerturbedTopK()
      )
    )
    (hard_atten): HardAttention(
      (scorer): MLP(
        (fc1): Linear(in_features=512, out_features=256, bias=True)
        (fc2): Linear(in_features=256, out_features=1, bias=True)
        (relu): ReLU()
        (sigmoid): Sigmoid()
      )
      (hard_att): PerturbedTopK()
    )
    (conv1): Conv1d(1024, 512, kernel_size=(1,), stride=(1,))
    (dropout): Dropout(p=0.05, inplace=False)
  )
  (classifier): Conv1d(300, 1, kernel_size=(3,), stride=(1,))
  (dropout): Dropout(p=0.5, inplace=False)
)

[2024-03-09 14:23:51,083][main.py][line:71][INFO] Optimizer:Adam (
Parameter Group 0
    amsgrad: False
    betas: (0.9, 0.999)
    capturable: False
    differentiable: False
    eps: 1e-08
    foreach: None
    fused: None
    lr: 0.0001
    maximize: False
    weight_decay: 0.005
)

[2024-03-09 14:24:04,189][main.py][line:76][INFO] Random initialize AUCAP:0.2849 Anomaly AUC:0.60659
…
: 0.5, 'margin': 100, 'max_epoch': 6, 'clip_feat_prefix': '/home/yukaneko/dev/CLIP-TSA_dataset/ucf/features/', 'result_dir': './result/ucf/', 'feat_dim': 1024, 'head_num': 1, 'hid_dim': 128, 'out_dim': 300, 'lr': 0.0001, 'dropout': 0.5, 'train_bs': 32, 'max_seqlen': 200, 'workers': 8, 'save_dir': './ckpt/', 'logs_dir': './log_info.log'}
[2024-03-09 20:26:49,118][main.py][line:259][INFO] total params:4.6207M
[2024-03-09 20:26:49,118][main.py][line:262][INFO] Training Mode
[2024-03-09 20:26:49,118][main.py][line:70][INFO] Model:XModel(
  (self_attention): XEncoder(
    (self_attn): TCA(
      (q): Linear(in_features=1024, out_features=128, bias=True)
      (k): Linear(in_features=1024, out_features=128, bias=True)
      (v): Linear(in_features=1024, out_features=128, bias=True)
      (o): Linear(in_features=128, out_features=1024, bias=True)
      (act): Softmax(dim=-1)
    )
    (linear1): Conv1d(600, 512, kernel_size=(1,), stride=(1,))
    (linear2): Conv1d(512, 300, kernel_size=(1,), stride=(1,))
    (dropout1): Pdropout()
    (dropout2): Pdropout()
    (norm): LayerNorm((1024,), eps=1e-05, elementwise_affine=True)
    (loc_adj): DistanceAdj()
    (UR_DMU): WSAD(
      (embedding): Temporal(
        (conv_1): Sequential(
          (0): Conv1d(600, 300, kernel_size=(3,), stride=(1,), padding=(1,))
          (1): ReLU()
        )
      )
      (triplet): TripletMarginLoss()
      (Amemory): Memory_Unit(
        (sig): Sigmoid()
      )
      (Nmemory): Memory_Unit(
        (sig): Sigmoid()
      )
      (selfatt): Transformer(
        (layers): ModuleList(
          (0-1): 2 x ModuleList(
            (0): PreNorm(
              (norm): LayerNorm((300,), eps=1e-05, elementwise_affine=True)
              (fn): Attention(
                (attend): Softmax(dim=-1)
                (to_qkv): Linear(in_features=300, out_features=2048, bias=False)
                (to_out): Sequential(
                  (0): Linear(in_features=1024, out_features=300, bias=True)
                  (1): Dropout(p=0.5, inplace=False)
                )
              )
            )
            (1): PreNorm(
              (norm): LayerNorm((300,), eps=1e-05, elementwise_affine=True)
              (fn): FeedForward(
                (net): Sequential(
                  (0): Linear(in_features=300, out_features=300, bias=True)
                  (1): GELU(approximate='none')
                  (2): Dropout(p=0.5, inplace=False)
                  (3): Linear(in_features=300, out_features=300, bias=True)
                  (4): Dropout(p=0.5, inplace=False)
                )
              )
            )
          )
        )
      )
      (encoder_mu): Sequential(
        (0): Linear(in_features=300, out_features=300, bias=True)
      )
      (encoder_var): Sequential(
        (0): Linear(in_features=300, out_features=300, bias=True)
      )
      (relu): ReLU()
      (hard_atten): HardAttention(
        (scorer): MLP(
          (fc1): Linear(in_features=300, out_features=256, bias=True)
          (fc2): Linear(in_features=256, out_features=1, bias=True)
          (relu): ReLU()
          (sigmoid): Sigmoid()
        )
        (hard_att): PerturbedTopK()
      )
    )
    (hard_atten): HardAttention(
      (scorer): MLP(
        (fc1): Linear(in_features=512, out_features=256, bias=True)
        (fc2): Linear(in_features=256, out_features=1, bias=True)
        (relu): ReLU()
        (sigmoid): Sigmoid()
      )
      (hard_att): PerturbedTopK()
    )
    (fc1): FC_layer(
      (fc): Sequential(
        (0): Conv1d(1024, 300, kernel_size=(1,), stride=(1,))
        (1): ReLU()
      )
      (dropout): Dropout(p=0.1, inplace=False)
    )
    (fc2): FC_layer(
      (fc): Sequential(
        (0): Conv1d(512, 300, kernel_size=(1,), stride=(1,))
        (1): ReLU()
      )
      (dropout): Dropout(p=0.1, inplace=False)
    )
    (dropout): Dropout(p=0.05, inplace=False)
  )
  (classifier): Conv1d(300, 1, kernel_size=(9,), stride=(1,))
  (dropout): Dropout(p=0.5, inplace=False)
)

[2024-03-09 20:26:49,118][main.py][line:71][INFO] Optimizer:Adam (
Parameter Group 0
    amsgrad: False
    betas: (0.9, 0.999)
    capturable: False
    differentiable: False
    eps: 1e-08
    foreach: None
    fused: None
    lr: 0.0001
    maximize: False
    weight_decay: 0.005
)

[2024-03-09 20:27:29,989][ma
…
: 0.5, 'margin': 100, 'max_epoch': 6, 'clip_feat_prefix': '/home/yukaneko/dev/CLIP-TSA_dataset/ucf/features/', 'result_dir': './result/ucf/', 'feat_dim': 1024, 'head_num': 1, 'hid_dim': 128, 'out_dim': 300, 'lr': 0.0001, 'dropout': 0.5, 'train_bs': 32, 'max_seqlen': 200, 'workers': 8, 'save_dir': './ckpt/', 'logs_dir': './log_info.log'}
[2024-03-09 20:27:51,367][main.py][line:259][INFO] total params:4.6198M
[2024-03-09 20:27:51,367][main.py][line:262][INFO] Training Mode
[2024-03-09 20:27:51,368][main.py][line:70][INFO] Model:XModel(
  (self_attention): XEncoder(
    (self_attn): TCA(
      (q): Linear(in_features=1024, out_features=128, bias=True)
      (k): Linear(in_features=1024, out_features=128, bias=True)
      (v): Linear(in_features=1024, out_features=128, bias=True)
      (o): Linear(in_features=128, out_features=1024, bias=True)
      (act): Softmax(dim=-1)
    )
    (linear1): Conv1d(600, 512, kernel_size=(1,), stride=(1,))
    (linear2): Conv1d(512, 300, kernel_size=(1,), stride=(1,))
    (dropout1): Pdropout()
    (dropout2): Pdropout()
    (norm): LayerNorm((600,), eps=1e-05, elementwise_affine=True)
    (loc_adj): DistanceAdj()
    (UR_DMU): WSAD(
      (embedding): Temporal(
        (conv_1): Sequential(
          (0): Conv1d(600, 300, kernel_size=(3,), stride=(1,), padding=(1,))
          (1): ReLU()
        )
      )
      (triplet): TripletMarginLoss()
      (Amemory): Memory_Unit(
        (sig): Sigmoid()
      )
      (Nmemory): Memory_Unit(
        (sig): Sigmoid()
      )
      (selfatt): Transformer(
        (layers): ModuleList(
          (0-1): 2 x ModuleList(
            (0): PreNorm(
              (norm): LayerNorm((300,), eps=1e-05, elementwise_affine=True)
              (fn): Attention(
                (attend): Softmax(dim=-1)
                (to_qkv): Linear(in_features=300, out_features=2048, bias=False)
                (to_out): Sequential(
                  (0): Linear(in_features=1024, out_features=300, bias=True)
                  (1): Dropout(p=0.5, inplace=False)
                )
              )
            )
            (1): PreNorm(
              (norm): LayerNorm((300,), eps=1e-05, elementwise_affine=True)
              (fn): FeedForward(
                (net): Sequential(
                  (0): Linear(in_features=300, out_features=300, bias=True)
                  (1): GELU(approximate='none')
                  (2): Dropout(p=0.5, inplace=False)
                  (3): Linear(in_features=300, out_features=300, bias=True)
                  (4): Dropout(p=0.5, inplace=False)
                )
              )
            )
          )
        )
      )
      (encoder_mu): Sequential(
        (0): Linear(in_features=300, out_features=300, bias=True)
      )
      (encoder_var): Sequential(
        (0): Linear(in_features=300, out_features=300, bias=True)
      )
      (relu): ReLU()
      (hard_atten): HardAttention(
        (scorer): MLP(
          (fc1): Linear(in_features=300, out_features=256, bias=True)
          (fc2): Linear(in_features=256, out_features=1, bias=True)
          (relu): ReLU()
          (sigmoid): Sigmoid()
        )
        (hard_att): PerturbedTopK()
      )
    )
    (hard_atten): HardAttention(
      (scorer): MLP(
        (fc1): Linear(in_features=512, out_features=256, bias=True)
        (fc2): Linear(in_features=256, out_features=1, bias=True)
        (relu): ReLU()
        (sigmoid): Sigmoid()
      )
      (hard_att): PerturbedTopK()
    )
    (fc1): FC_layer(
      (fc): Sequential(
        (0): Conv1d(1024, 300, kernel_size=(1,), stride=(1,))
        (1): ReLU()
      )
      (dropout): Dropout(p=0.1, inplace=False)
    )
    (fc2): FC_layer(
      (fc): Sequential(
        (0): Conv1d(512, 300, kernel_size=(1,), stride=(1,))
        (1): ReLU()
      )
      (dropout): Dropout(p=0.1, inplace=False)
    )
    (dropout): Dropout(p=0.05, inplace=False)
  )
  (classifier): Conv1d(300, 1, kernel_size=(9,), stride=(1,))
  (dropout): Dropout(p=0.5, inplace=False)
)

[2024-03-09 20:27:51,368][main.py][line:71][INFO] Optimizer:Adam (
Parameter Group 0
    amsgrad: False
    betas: (0.9, 0.999)
    capturable: False
    differentiable: False
    eps: 1e-08
    foreach: None
    fused: None
    lr: 0.0001
    maximize: False
    weight_decay: 0.005
)

[2024-03-09 20:28:08,328][main.py][line:76][INFO] Random initialize AUCAUC:0.5520 Anomaly AUC:0.56599
…
: 0.5, 'margin': 100, 'max_epoch': 6, 'clip_feat_prefix': '/home/yukaneko/dev/CLIP-TSA_dataset/ucf/features/', 'result_dir': './result/ucf/', 'feat_dim': 1024, 'head_num': 1, 'hid_dim': 128, 'out_dim': 300, 'lr': 0.0001, 'dropout': 0.5, 'train_bs': 32, 'max_seqlen': 200, 'workers': 8, 'save_dir': './ckpt/', 'logs_dir': './log_info.log'}
[2024-03-10 15:52:04,004][main.py][line:259][INFO] total params:3.5705M
[2024-03-10 15:52:04,004][main.py][line:262][INFO] Training Mode
[2024-03-10 15:52:04,004][main.py][line:70][INFO] Model:XModel(
  (self_attention): XEncoder(
    (self_attn): TCA(
      (q): Linear(in_features=1024, out_features=128, bias=True)
      (k): Linear(in_features=1024, out_features=128, bias=True)
      (v): Linear(in_features=1024, out_features=128, bias=True)
      (o): Linear(in_features=128, out_features=1024, bias=True)
      (act): Softmax(dim=-1)
    )
    (linear1): Conv1d(1024, 512, kernel_size=(1,), stride=(1,))
    (linear2): Conv1d(512, 300, kernel_size=(1,), stride=(1,))
    (dropout1): Pdropout()
    (dropout2): Pdropout()
    (norm): LayerNorm((1024,), eps=1e-05, elementwise_affine=True)
    (loc_adj): DistanceAdj()
    (UR_DMU): WSAD(
      (embedding): Temporal(
        (conv_1): Sequential(
          (0): Conv1d(1024, 512, kernel_size=(3,), stride=(1,), padding=(1,))
          (1): ReLU()
        )
      )
      (relu): ReLU()
      (hard_atten): HardAttention(
        (scorer): MLP(
          (fc1): Linear(in_features=512, out_features=256, bias=True)
          (fc2): Linear(in_features=256, out_features=1, bias=True)
          (relu): ReLU()
          (sigmoid): Sigmoid()
        )
        (hard_att): PerturbedTopK()
      )
    )
    (hard_atten): HardAttention(
      (scorer): MLP(
        (fc1): Linear(in_features=512, out_features=256, bias=True)
        (fc2): Linear(in_features=256, out_features=1, bias=True)
        (relu): ReLU()
        (sigmoid): Sigmoid()
      )
      (hard_att): PerturbedTopK()
    )
    (fc1): FC_layer(
      (fc): Sequential(
        (0): Conv1d(1024, 512, kernel_size=(1,), stride=(1,))
        (1): ReLU()
      )
      (dropout): Dropout(p=0.05, inplace=False)
    )
  )
  (classifier): Conv1d(300, 1, kernel_size=(9,), stride=(1,))
  (dropout): Dropout(p=0.5, inplace=False)
)

[2024-03-10 15:52:04,004][main.py][line:71][INFO] Optimizer:Adam (
Parameter Group 0
    amsgrad: False
    betas: (0.9, 0.999)
    capturable: False
    differentiable: False
    eps: 1e-08
    foreach: None
    fused: None
    lr: 0.0001
    maximize: False
    weight_decay: 0.005
)

[2024-03-10 15:52:26,669][ma
…
': 0.6, 'margin': 100, 'max_epoch': 20, 'clip_feat_prefix': '/home/yukaneko/dev/CLIP-TSA_dataset/xd/features/', 'result_dir': './result/xd/', 'feat_dim': 1024, 'head_num': 1, 'hid_dim': 128, 'out_dim': 300, 'lr': 0.0001, 'dropout': 0.5, 'train_bs': 32, 'max_seqlen': 200, 'workers': 8, 'save_dir': './ckpt/', 'logs_dir': './log_info.log'}
[2024-03-10 19:09:57,918][main.py][line:259][INFO] total params:3.5687M
[2024-03-10 19:09:57,918][main.py][line:262][INFO] Training Mode
[2024-03-10 19:09:57,919][main.py][line:70][INFO] Model:XModel(
  (self_attention): XEncoder(
    (self_attn): TCA(
      (q): Linear(in_features=1024, out_features=128, bias=True)
      (k): Linear(in_features=1024, out_features=128, bias=True)
      (v): Linear(in_features=1024, out_features=128, bias=True)
      (o): Linear(in_features=128, out_features=1024, bias=True)
      (act): Softmax(dim=-1)
    )
    (linear1): Conv1d(1024, 512, kernel_size=(1,), stride=(1,))
    (linear2): Conv1d(512, 300, kernel_size=(1,), stride=(1,))
    (dropout1): Pdropout()
    (dropout2): Pdropout()
    (norm): LayerNorm((1024,), eps=1e-05, elementwise_affine=True)
    (loc_adj): DistanceAdj()
    (UR_DMU): WSAD(
      (embedding): Temporal(
        (conv_1): Sequential(
          (0): Conv1d(1024, 512, kernel_size=(3,), stride=(1,), padding=(1,))
          (1): ReLU()
        )
      )
      (hard_atten): HardAttention(
        (scorer): MLP(
          (fc1): Linear(in_features=512, out_features=256, bias=True)
          (fc2): Linear(in_features=256, out_features=1, bias=True)
          (relu): ReLU()
          (sigmoid): Sigmoid()
        )
        (hard_att): PerturbedTopK()
      )
    )
    (hard_atten): HardAttention(
      (scorer): MLP(
        (fc1): Linear(in_features=512, out_features=256, bias=True)
        (fc2): Linear(in_features=256, out_features=1, bias=True)
        (relu): ReLU()
        (sigmoid): Sigmoid()
      )
      (hard_att): PerturbedTopK()
    )
    (fc1): FC_layer(
      (fc): Sequential(
        (0): Conv1d(1024, 512, kernel_size=(1,), stride=(1,))
        (1): ReLU()
      )
      (dropout): Dropout(p=0.05, inplace=False)
    )
  )
  (classifier): Conv1d(300, 1, kernel_size=(3,), stride=(1,))
  (dropout): Dropout(p=0.5, inplace=False)
)

[2024-03-10 19:09:57,919][main.py][line:71][INFO] Optimizer:Adam (
Parameter Group 0
    amsgrad: False
    betas: (0.9, 0.999)
    capturable: False
    differentiable: False
    eps: 1e-08
    foreach: None
    fused: None
    lr: 0.0001
    maximize: False
    weight_decay: 0.005
)

[2024-03-10 19:10:15,249][ma
…
': 0.6, 'margin': 100, 'max_epoch': 20, 'clip_feat_prefix': '/home/yukaneko/dev/CLIP-TSA_dataset/xd/features/', 'result_dir': './result/xd/', 'feat_dim': 1024, 'head_num': 1, 'hid_dim': 128, 'out_dim': 300, 'lr': 0.0001, 'dropout': 0.5, 'train_bs': 32, 'max_seqlen': 200, 'workers': 8, 'save_dir': './ckpt/', 'logs_dir': './log_info.log'}
[2024-03-10 19:10:18,291][main.py][line:259][INFO] total params:7.7702M
[2024-03-10 19:10:18,291][main.py][line:262][INFO] Training Mode
[2024-03-10 19:10:18,292][main.py][line:70][INFO] Model:XModel(
  (self_attention): XEncoder(
    (self_attn): TCA(
      (q): Linear(in_features=1024, out_features=128, bias=True)
      (k): Linear(in_features=1024, out_features=128, bias=True)
      (v): Linear(in_features=1024, out_features=128, bias=True)
      (o): Linear(in_features=128, out_features=1024, bias=True)
      (act): Softmax(dim=-1)
    )
    (linear1): Conv1d(1024, 512, kernel_size=(1,), stride=(1,))
    (linear2): Conv1d(512, 300, kernel_size=(1,), stride=(1,))
    (dropout1): Pdropout()
    (dropout2): Pdropout()
    (norm): LayerNorm((1024,), eps=1e-05, elementwise_affine=True)
    (loc_adj): DistanceAdj()
    (UR_DMU): WSAD(
      (embedding): Temporal(
        (conv_1): Sequential(
          (0): Conv1d(1024, 512, kernel_size=(3,), stride=(1,), padding=(1,))
          (1): ReLU()
        )
      )
      (selfatt): Transformer(
        (layers): ModuleList(
          (0-1): 2 x ModuleList(
            (0): PreNorm(
              (norm): LayerNorm((512,), eps=1e-05, elementwise_affine=True)
              (fn): Attention(
                (attend): Softmax(dim=-1)
                (to_qkv): Linear(in_features=512, out_features=2048, bias=False)
                (to_out): Sequential(
                  (0): Linear(in_features=1024, out_features=512, bias=True)
                  (1): Dropout(p=0.5, inplace=False)
                )
              )
            )
            (1): PreNorm(
              (norm): LayerNorm((512,), eps=1e-05, elementwise_affine=True)
              (fn): FeedForward(
                (net): Sequential(
                  (0): Linear(in_features=512, out_features=512, bias=True)
                  (1): GELU(approximate='none')
                  (2): Dropout(p=0.5, inplace=False)
                  (3): Linear(in_features=512, out_features=512, bias=True)
                  (4): Dropout(p=0.5, inplace=False)
                )
              )
            )
          )
        )
      )
      (hard_atten): HardAttention(
        (scorer): MLP(
          (fc1): Linear(in_features=512, out_features=256, bias=True)
          (fc2): Linear(in_features=256, out_features=1, bias=True)
          (relu): ReLU()
          (sigmoid): Sigmoid()
        )
        (hard_att): PerturbedTopK()
      )
    )
    (hard_atten): HardAttention(
      (scorer): MLP(
        (fc1): Linear(in_features=512, out_features=256, bias=True)
        (fc2): Linear(in_features=256, out_features=1, bias=True)
        (relu): ReLU()
        (sigmoid): Sigmoid()
      )
      (hard_att): PerturbedTopK()
    )
    (fc1): FC_layer(
      (fc): Sequential(
        (0): Conv1d(1024, 512, kernel_size=(1,), stride=(1,))
        (1): ReLU()
      )
      (dropout): Dropout(p=0.05, inplace=False)
    )
  )
  (classifier): Conv1d(300, 1, kernel_size=(3,), stride=(1,))
  (dropout): Dropout(p=0.5, inplace=False)
)

[2024-03-10 19:10:18,292][main.py][line:71][INFO] Optimizer:Adam (
Parameter Group 0
    amsgrad: False
    betas: (0.9, 0.999)
    capturable: False
    differentiable: False
    eps: 1e-08
    foreach: None
    fused: None
    lr: 0.0001
    maximize: False
    weight_decay: 0.005
)

[2024-03-10 19:10:31,327][main.py][line:76][INFO] Random initialize AUCAP:0.2093 Anomaly AUC:0.44796
…
