8000 8100 2900
macro shape:  torch.Size([400, 1024])
[2023-09-09 22:51:58,262][main.py][line:165][INFO] total params:32.6239M
[2023-09-09 22:51:58,263][main.py][line:168][INFO] Training Mode
[2023-09-09 22:51:58,263][main.py][line:78][INFO] Model:XModel(
  (self_attention): XEncoder(
    (self_attn): TCA(
      (q): Linear(in_features=1024, out_features=128, bias=True)
      (k): Linear(in_features=1024, out_features=128, bias=True)
      (v): Linear(in_features=1024, out_features=128, bias=True)
      (o): Linear(in_features=128, out_features=1024, bias=True)
      (act): Softmax(dim=-1)
    )
    (linear1): Conv1d(1024, 512, kernel_size=(1,), stride=(1,))
    (linear2): Conv1d(512, 300, kernel_size=(1,), stride=(1,))
    (dropout1): Dropout(p=0.1, inplace=False)
    (dropout2): Dropout(p=0.1, inplace=False)
    (norm): LayerNorm((1024,), eps=1e-05, elementwise_affine=True)
    (loc_adj): DistanceAdj()
    (DR_DMU): WSAD(
      (embedding): Temporal(
        (conv_1): Sequential(
          (0): Conv1d(1024, 512, kernel_size=(3,), stride=(1,), padding=(1,))
          (1): ReLU()
        )
      )
      (triplet): TripletMarginLoss()
      (Amemory): Memory_Unit(
        (sig): Sigmoid()
      )
      (Nmemory): Memory_Unit(
        (sig): Sigmoid()
      )
      (selfatt): Transformer(
        (layers): ModuleList(
          (0-1): 2 x ModuleList(
            (0): PreNorm(
              (norm): LayerNorm((512,), eps=1e-05, elementwise_affine=True)
              (fn): Attention(
                (attend): Softmax(dim=-1)
                (to_qkv): Linear(in_features=512, out_features=2048, bias=False)
                (to_out): Sequential(
                  (0): Linear(in_features=1024, out_features=512, bias=True)
                  (1): Dropout(p=0.1, inplace=False)
                )
              )
            )
            (1): PreNorm(
              (norm): LayerNorm((512,), eps=1e-05, elementwise_affine=True)
              (fn): FeedForward(
                (net): Sequential(
                  (0): Linear(in_features=512, out_features=512, bias=True)
                  (1): GELU(approximate='none')
                  (2): Dropout(p=0.1, inplace=False)
                  (3): Linear(in_features=512, out_features=512, bias=True)
                  (4): Dropout(p=0.1, inplace=False)
                )
              )
            )
          )
        )
      )
      (encoder_mu): Sequential(
        (0): Linear(in_features=512, out_features=512, bias=True)
      )
      (encoder_var): Sequential(
        (0): Linear(in_features=512, out_features=512, bias=True)
      )
      (relu): ReLU()
    )
    (en_normal): enNormal(
      (en_normal_module): enNormalModule(
        (query_embedding): Linear(in_features=1024, out_features=256, bias=True)
        (cache_embedding): Linear(in_features=1024, out_features=256, bias=True)
        (value_embedding): Linear(in_features=1024, out_features=1024, bias=True)
      )
    )
    (de_normal): deNormal(
      (channel_attention): ChannelAttention(
        (channel_gate): ChannelGate(
          (mlp): Sequential(
            (0): Flatten()
            (1): Linear(in_features=1024, out_features=64, bias=True)
            (2): ReLU()
            (3): Linear(in_features=64, out_features=1024, bias=True)
          )
        )
      )
    )
    (macro_classifier): GlobalStatistics(
      (flat): Flatten()
      (mlp): Sequential(
        (0): Linear(in_features=1024, out_features=256, bias=True)
        (1): ReLU()
        (2): Dropout(p=0.1, inplace=False)
        (3): Linear(in_features=256, out_features=64, bias=True)
        (4): ReLU()
        (5): Dropout(p=0.1, inplace=False)
        (6): Linear(in_features=64, out_features=1, bias=True)
      )
    )
    (video_embedding): Transformer(
      (layers): ModuleList(
        (0-1): 2 x ModuleList(
          (0): PreNorm(
            (norm): LayerNorm((1024,), eps=1e-05, elementwise_affine=True)
            (fn): Attention(
              (attend): Softmax(dim=-1)
              (to_qkv): Linear(in_features=1024, out_features=2048, bias=False)
              (to_out): Sequential(
                (0): Linear(in_features=1024, out_features=1024, bias=True)
                (1): Dropout(p=0.1, inplace=False)
              )
            )
          )
          (1): PreNorm(
            (norm): LayerNorm((1024,), eps=1e-05, elementwise_affine=True)
            (fn): FeedForward(
              (net): Sequential(
                (0): Linear(in_features=1024, out_features=1024, bias=True)
                (1): GELU(approximate='none')
                (2): Dropout(p=0.1, inplace=False)
                (3): Linear(in_features=1024, out_features=1024, bias=True)
                (4): Dropout(p=0.1, inplace=False)
              )
            )
          )
        )
      )
    )
    (macro_embedding): Transformer(
      (layers): ModuleList(
        (0-1): 2 x ModuleList(
          (0): PreNorm(
            (norm): LayerNorm((1024,), eps=1e-05, elementwise_affine=True)
            (fn): Attention(
              (attend): Softmax(dim=-1)
              (to_qkv): Linear(in_features=1024, out_features=2048, bias=False)
              (to_out): Sequential(
                (0): Linear(in_features=1024, out_features=1024, bias=True)
                (1): Dropout(p=0.1, inplace=False)
              )
            )
          )
          (1): PreNorm(
            (norm): LayerNorm((1024,), eps=1e-05, elementwise_affine=True)
            (fn): FeedForward(
              (net): Sequential(
                (0): Linear(in_features=1024, out_features=1024, bias=True)
                (1): GELU(approximate='none')
                (2): Dropout(p=0.1, inplace=False)
                (3): Linear(in_features=1024, out_features=1024, bias=True)
                (4): Dropout(p=0.1, inplace=False)
              )
            )
          )
        )
      )
    )
    (embedding): Linear(in_features=2048, out_features=1024, bias=True)
  )
  (classifier): Conv1d(300, 1, kernel_size=(9,), stride=(1,))
  (dropout): Dropout(p=0.1, inplace=False)
)
[2023-09-09 22:51:58,263][main.py][line:79][INFO] Optimizer:AdamW (
Parameter Group 0
    amsgrad: False
    betas: (0.9, 0.999)
    capturable: False
    differentiable: False
    eps: 1e-08
    foreach: None
    fused: None
    initial_lr: 0.0001
    lr: 0.0001
    maximize: False
    weight_decay: 0.01
)
Traceback (most recent call last):
…
